Models/model_mnist.pth (torch, 181296 bytes, 10 tensors)

conv1.weight f4 [6, 1, 5, 5]
0.016752016 -0.04925295 0.29716086 0.3663963 0.32127047 0.22342023 0.1877852 0.059802774
0.028632283 0.11460214 -0.09061028 0.14178102 0.080867924 -0.27197704 -0.13050903 0.015895093
-0.23649582 -0.25826836 -0.0050967485 -0.3101586 -0.09810324 -0.07278437 -0.27357784 -0.13049616
-0.027317252 -0.09849537 -0.21709776 -0.109224044 -0.23419249 -0.21294719 -0.20455748 -0.2285668
-0.25487208 -0.28170508 -0.27626756 -0.24113885 -0.07683031 -0.19297154 0.027666437 -0.28693786
0.08936156 -0.09330189 0.052370843 -0.094995014 -0.042849712 -0.13016509 0.015775213 0.0030441768
-0.20316502 0.03557093 0.04784955 0.19626153 0.063696854 0.038622413 -0.1882797 0.20820017
0.070810795 0.091742545 -0.05796769 -0.21013248 0.12031762 0.21538302 -0.0106617715 -0.24931477
-0.14058606 0.14971802 0.2717176 -0.15892738 -0.1889733 -0.26237762 0.1650004 0.022446016
-0.11884835 -0.12713915 -0.08174583 0.08157181 0.22570929 -0.011780602 0.07292658 0.038275525
0.2721426 0.26299673 0.026134549 0.2378705 0.1820172 -0.24156214 0.052773375 0.1442405
0.23202458 0.28986722 -0.30334693 -0.11492255 -0.30327535 -0.08006177 -0.2597536 -0.03900453
-0.23167932 -0.033964008 -0.334234 -0.045218527 0.03877918 -0.115933344 -0.20910116 -0.02765012
0.23381443 -0.11615988 0.041014854 -0.17405045 0.25602213 0.0012954026 -0.15960181 -0.34665218
0.04863166 0.07163504 0.2615997 -0.26433203 -0.2999676 0.25275078 0.38013837 -0.023650682
0.07390839 0.2450502 0.02237056 0.245228 0.056190364 -0.11047572 0.042120732 0.22851053
0.1578673 -0.07182444 -0.13626644 0.27282712 0.040559385 0.3043614 -0.13549411 0.18574661
0.3713528 0.09983154 -0.29087952 0.11005536 -0.08504875 0.10566061 -0.3108257 -0.20419982
-0.076609336 0.13502511 -0.014637159 -0.21963595 -0.24606486 0.08920524
00000000: 863b 893c 76bd 49bd 7825 983e 4c98 bb3e
00000010: 907d a43e 46c8 643e c34a 403e c1f3 743d
00000020: 408e ea3c 87b4 ea3d e291 b9bd 0b2f 113e
00000030: 159e a53d 9340 8bbe 29a4 05be 6d36 823c
00000040: f62b 72be c03b 84be a002 a7bb 1ccd 9ebe
00000050: 5aea c8bd f90f 95bd 6512 8cbe c9a0 05be
00000060: 6ec8 dfbc f1b7 c9bd e04e 5ebe dbb0 dfbd
00000070: 28d0 6fbe d40e 5abe 8477 51be 6a0d 6abe
00000080: 987e 82be a63b 90be f172 8dbe 1aed 76be
00000090: 3659 9dbd 559a 45be b9a4 e23c 85e9 92be
000000a0: 3203 b73d 1015 bfbd cf82 563d bf8c c2bd
000000b0: 2e83 2fbd ff49 05be 053b 813c d080 473b
000000c0: 7e0a 50be d3b2 113d e4fd 433d c8f8 483e
000000d0: 7f73 823d 8932 1e3d 65cc 40be 6d32 553e
000000e0: 4005 913d 84e3 bb3d 876f 6dbd f82c 57be
000000f0: 1669 f63d 5e8d 5c3e b6ae 2ebc 5f4c 7fbe
00000100: cbf5 0fbe ae4f 193e 921e 8b3e dcbd 22be
00000110: 3782 41be 5c56 86be ddf5 283e b5e0 b73c
00000120: c466 f3bd c430 02be 5c6a a7bd 1f0f a73d
00000130: 5620 673e 6d03 41bc 885a 953d ccc6 1c3d
00000140: 4656 8b3e 82a7 863e 1f18 d63c 5394 733e
00000150: b862 3a3e 115c 77be e528 583d c8b3 133e
00000160: da97 6d3e 7a69 943e 4a50 9bbe 845c ebbd
00000170: e846 9bbe 6df7 a3bd 6dfe 84be 37c3 1fbd
00000180: 583d 6dbe d81d 0bbd b820 abbe 1037 39bd
00000190: ebd6 1e3d 766e edbd 9d1e 56be 8182 e2bc
000001a0: 0d6d 6f3e 3be5 edbd 31ff 273d 483a 32be
000001b0: 5515 833e 80ca a93a a86e 23be 657c b1be
000001c0: fe31 473d 64b5 923d 65f0 853e 8756 87be
000001d0: 5a95 99be 8d68 813e 7fa1 c23e 13bf c1bc
000001e0: 485d 973d 71ee 7a3e 7742 b73c 0d1d 7b3e
000001f0: de27 663d 1841 e2bd ca86 2c3d aafe 693e
00000200: f7a7 213e b118 93bd 6e89 0bbe ffaf 8b3e
00000210: 9921 263d 42d5 9b3e f8be 0abe 5c34 3e3e
00000220: f421 be3e 7a74 cc3d 29ee 94be b464 e13d
00000230: 0a2e aebd 9764 d83d 8c24 9fbe c219 51be
00000240: 5be5 9cbd 0644 0a3e b2d0 6fbc 3fe8 60be
00000250: 6df8 7bbe 3db1 b63d

conv1.bias f4 [6]
-0.08456293 -0.11583286 0.17107697 0.11874096 0.00924448 0.2304733
00000000: 542f adbd c739 edbd cd2e 2f3e 762e f33d
00000010: 2976 173c 3101 6c3e

conv2.weight f4 [16, 6, 5, 5]
0.056043874 0.0002832946 -0.04390362 -0.04490382 0.15669209 -0.0047196965 -0.03650101 0.034820747
0.07241543 0.09358805 0.07201772 0.16423278 0.17911296 0.09747283 -0.07154294 0.055273708
0.09814724 -0.04871311 -0.072152235 -0.23922338 0.036915135 0.012550792 0.005493638 -0.123065956
0.033356708 -0.036359906 0.031201469 -0.04926026 -0.01862055 0.04667048 0.011935286 0.10168449
0.0549149 0.07471384 0.10038887 -0.06525499 0.088236004 0.093567446 0.09983837 0.13831103
-0.0832757 0.10009401 0.16482192 0.12126265 0.11155678 -0.040876925 -0.065449946 0.03987097
0.13409838 0.07411216 0.09818164 -0.09343806 0.02449023 0.083298884 0.032979153 0.1394539
-0.02330095 -0.10924937 0.17849806 -0.011093905 0.07081488 -0.06971109 0.006393392 0.04452621
0.05041374 0.10144924 -0.09101456 0.030094346 0.025197601 -0.12112503 0.051069774 0.006107022
0.082475424 -0.054310635 -0.018732695 0.034317072 -0.015669983 0.039928988 0.009874027 0.0029022878
-0.02349175 -0.045698393 0.053811885 -0.037472125 0.063005336 0.00015189926 0.0869387 0.072396904
-0.0635415 -0.0358892 -0.01245818 -0.055432487 -0.14959453 -0.0977442 -0.1671886 -0.010177542
-0.09697779 -0.09335887 -0.09551596 -0.043660726 -0.08086168 -0.013864811 0.065049656 0.030065507
-0.04073434 -0.061987538 -0.05940376 0.034920864 -0.0913235 -0.12759154 -0.05595519 0.03451746
-0.08061666 -0.12322299 -0.025898222 -0.1221402 -0.073949404 0.052284405 -0.08863046 0.12895834
-0.053751256 0.014904565 0.012370004 0.11255939 -0.024718443 0.07341916 0.022369426 -0.13608883
-0.024394538 0.052468095 0.0059272903 -0.100005545 0.0048898775 0.14002086 0.016799564 -0.0603134
-0.021908987 0.085048676 0.06957065 -0.10161007 0.021683343 -0.007676454 0.017457785 -0.100248694
-0.15556741 -0.021832408 0.0069079306 -0.0031625996 -0.099914715 -0.055593736 -0.0483298 0.009974818
0.048670664 0.062236577 0.0058170576 0.03617005 -0.06771632 -0.11498946 -0.028741447 -0.088283785
-0.070835516 -0.07377368 -0.16948731 -0.21587548 -0.1294775 -0.13535638 -0.12372199 -0.21221003
-0.07681662 -0.13356344 -0.12228536 -0.0864017 -0.042981114 -0.108689874 0.024926081 -0.06460709
0.06733683 0.04696524 -0.017264545 0.041643545 0.024521327 0.005399569 0.004839376 0.03718094
-0.05114917 -0.038772315 0.017606331 0.110282 0.11365554 -0.008651324 0.025108295 0.11688972
0.09860534 -0.0018972345 -0.0073167095 0.061914314 0.16141249 0.14753269 0.012152988 -0.048751798
-0.0020264406 0.14927085 0.07613932 -0.12579653 -0.056855816 -0.009064451 0.13247325 0.13512427
-0.054976992 0.06972796 0.11417669 0.104001105 0.16266347 -0.0076383706 0.038270395 0.09664399
0.08557748 0.06389961 -0.024429554 0.08863682 0.030093094 0.06636057 0.049572363 -0.11608622
-0.004359614 0.12016424 0.06862942 0.007274792 -0.028348718 -0.06135919 -0.018639179 -0.025834288
-0.1440483 -0.10238161 -0.09075406 -0.057215385 -0.15713276 -0.07160192 -0.08938665 -0.11510512
-0.10324293 -0.082212076 -0.20414707 -0.13757318 -0.032735538 -0.06707649 -0.154866 -0.1985982
-0.16017444 0.022806212 -0.05167142 -0.033037856 -0.02988198 -0.04238725 -0.00040999526 0.08384927
00000000: 438e 653d 2887 9439 48d4 33bd 11ed 37bd
00000010: e473 203e afa7 9abb 1582 15bd 33a0 0e3d
00000020: 8a4e 943d 17ab bf3d 077e 933d a32c 283e
00000030: 6369 373e d69f c73d 1b85 92bd af66 623d
00000040: 6c01 c93d 6687 47bd 8dc4 93bd f9f6 74be
00000050: 5334 173d d6a1 4d3c fa03 b43b 010a fcbd
00000060: 0ba1 083d 20ee 14bd 399a ff3c 20c5 49bd
00000070: 208a 98bc 8c29 3f3d 388c 433c f53f d03d
00000080: 72ee 603d 9203 993d ae98 cd3d 68a4 85bd
00000090: 14b5 b43d 4aa0 bf3d 0f78 cc3d 68a1 0d3e
000000a0: 738c aabd 17fe cc3d 14c7 283e 8d58 f83d
000000b0: e277 e43d 906e 27bd 9f0a 86bd be4f 233d
000000c0: 1651 093e 1ec8 973d 7513 c93d 745c bfbd
000000d0: bc9f c83c 9b98 aa3d 2615 073d 01cd 0e3e
000000e0: a2e1 bebc 22be dfbd 32c8 363e 36c3 35bc
000000f0: 6407 913d b0c4 8ebd a97f d13b 1d61 363d
00000100: a37e 4e3d 9fc4 cf3d d765 babd 6b88 f63c
00000110: 336b ce3c 6610 f8bd 8a2e 513d 6a1d c83b
00000120: e0e8 a83d d474 5ebd 4f75 99bc 0f90 0c3d
00000130: 565e 80bc 948c 233d acc6 213c 4f34 3e3b
00000140: c571 c0bc 3d2e 3bbd da69 5c3d 5f7c 19bd
00000150: f108 813d 2647 1f39 eb0c b23d d444 943d
00000160: 0c22 82bd 8e00 13bd 651d 4cbc 2d0d 63bd
00000170: 4f2f 19be 1c2e c8bd 7d33 2bbe b5bf 26bc
00000180: 4b9c c6bd ef32 bfbd df9d c3bd 97d5 32bd
00000190: cf9a a5bd 3b29 63bc c138 853d f04b f63c
000001a0: 0dd9 26bd a5e6 7dbd 5b51 73bd 2e09 0f3d
000001b0: d107 bbbd 5ba7 02be 4531 65bd 2e62 0d3d
000001c0: 591a a5bd 565c fcbd 8228 d4bc a424 fabd
000001d0: c972 97bd 2c28 563d e383 b5bd a80d 043e
000001e0: 472a 5cbd 4732 743c 8fab 4a3c 8a85 e63d
000001f0: 557e cabc c95c 963d 1640 b73c df5a 0bbe
00000200: 0ed7 c7bc c9e8 563d b739 c23b b5cf ccbd
00000210: 443b a03b a161 0f3e 3d9f 893c 2f0b 77bd
00000220: 7a7a b3bc 002e ae3d 0f7b 8e3d f118 d0bd
00000230: 44a1 b13c c38a fbbb a103 8f3c 304f cdbd
00000240: 104d 1fbe e1d9 b2bc ec5b e23b 9e43 4fbb
00000250: 16a0 ccbd 42b6 63bd 78f5 45bd 6b6d 233c
00000260: e45a 473d c8eb 7e3d 049d be3b 0c27 143d
00000270: dbae 8abd 987f ebbd 2f73 ebbc 21ce b4bd
00000280: 3612 91bd a816 97bd 158e 2dbe 760e 5dbe
00000290: c095 04be dd9a 0abe f461 fdbd 964d 59be
000002a0: 0852 9dbd dbc4 08be bf70 fabd 60f3 b0bd
000002b0: f70c 30bd cc98 debd c831 cc3c b950 84bd
000002c0: e4e7 893d a05e 403d 606e 8dbc 6c92 2a3d
000002d0: f3e0 c83c deee b03b a193 9e3b 0b4b 183d
000002e0: cb81 51bd b8cf 1ebd 273b 903c 87db e13d
000002f0: 3cc4 e83d 48be 0dbc e9af cd3c e163 ef3d
00000300: 99f1 c93d a0ac f8ba 02c1 efbb dd99 7d3d
00000310: 5149 253e cf12 173e 541d 473c f7af 47bd
00000320: 08ce 04bb 75da 183e efee 9b3d ced0 00be
00000330: a5e1 68bd 1083 14bc 11a7 073e 045e 0a3e
00000340: 8e2f 61bd 88cd 8e3d 78d5 e93d 88fe d43d
00000350: 4191 263e 4c4b fabb 6bc1 1c3d 49ed c53d
00000360: 3f43 af3d ccdd 823d 7d20 c8bc 3987 b53d
00000370: cb85 f63c 0de8 873d 640c 4b3d 9dbe edbd
00000380: 18db 8ebb ab18 f63d 958d 8c3d 6161 ee3b
00000390: 923b e8bc c653 7bbd 31b1 98bc 6ea2 d3bc
000003a0: 6681 13be 73ad d1bd 44dd b9bd ae5a 6abd
000003b0: 69e7 20be 07a4 92bd 5910 b7bd 3cbc ebbd
000003c0: 0771 d3bd ce5e a8bd ee0b 51be fcdf 0cbe
000003d0: b315 06bd 665f 89bd 3195 1ebe 545d 4bbe
000003e0: c504 24be 18d4 ba3c 69a5 53bd b452 07bd
000003f0: 0ecb f4bc 419e 2dbd a2f4 d6b9 2bb9 ab3d

conv2.bias f4 [16]
0.014669629 0.05594764 -0.038180616 -0.0047898157 0.09380297 -0.044018943 0.11053046 -0.031284768
0.0537049 -0.022254057 -0.050505243 0.049222667 0.08209753 0.053367548 -0.0038320357 -0.06384103
00000000: e258 703c 5a29 653d 4763 1cbd e3f3 9cbb
00000010: c61b c03d 354d 34bd cb5d e23d 7524 00bd
00000020: abf9 5b3d 244e b6bc 96de 4ebd b59d 493d
00000030: c022 a83d ee97 5a3d e422 7bbb 16bf 82bd

fc1.weight f4 [120, 256]
-0.04205156 0.042034477 0.01607817 0.00789 -0.010163036 0.050488647 0.045811035 0.07406307
0.07410108 -0.018198278 0.04134692 0.015119564 -0.010758179 0.031692766 -0.027823228 -0.005372941
-0.0070924633 0.061851386 0.022740731 -0.022024829 0.041392904 -0.0011559537 -0.0310612 -0.010911981
0.05865843 -0.011911234 -0.03387097 -0.016818887 -0.04373632 -0.023593593 0.024050191 -0.031987127
-0.020984774 -0.08131346 -0.06654456 0.122370064 0.032647975 -0.048777647 0.022715112 0.04392994
-0.014539925 0.059294764 -0.06731037 -0.070168234 -0.037912555 -0.026211062 0.032779884 0.007570235
0.039867338 0.010853508 0.004196655 0.045171406 -0.017803831 -0.004322678 -0.014507194 -0.003784622
-0.015215902 0.009775121 0.09307101 0.022009864 0.068700634 0.0062699947 -0.0067425934 0.02072061
-0.028820323 0.055460352 0.022734929 -0.035368837 0.061440155 -0.014280073 -0.087568305 0.05803805
0.023724811 0.06596088 0.0403059 0.039785754 0.025875496 0.023279868 0.09316951 0.061653845
0.022343572 -0.043981027 -0.02835672 -0.0042692046 -0.036707126 -0.06108805 -0.040814098 0.09259202
0.092075326 0.13239868 0.126503 0.031914853 -0.013640787 -0.051119626 0.028602207 -0.06298841
-0.033231445 -0.032411225 -0.04981088 0.037535224 0.014497268 0.015476555 0.078233495 0.046839505
0.00021627496 -0.0384389 -0.023305723 0.028478773 0.027297232 0.03470636 -0.114184365 -0.0872295
0.018673848 -0.011924915 0.07351786 0.08518171 0.015159885 -0.0064670662 0.033824943 0.060979903
0.060579397 0.049947716 0.009571014 0.013978024 -0.06565441 0.034310088 0.0056061605 -0.040671214
0.03414993 -0.033474885 0.004984908 0.053084336 0.011642049 0.01256427 0.00265698 0.04762496
-0.0013911843 -0.03641363 0.035410278 0.031840112 0.07613243 0.09631161 0.053596184 -0.023386344
-0.043533333 -0.05348307 0.11121741 0.047259007 -0.02234192 0.044402584 0.0065642465 -0.016620463
-0.085644476 -0.026898952 0.025531117 -0.022994922 -0.124275565 -0.08858283 -0.031475108 0.048085693
0.062583394 -0.00092017185 0.0014433966 -0.05155115 0.0495071 -0.026185393 -0.009232018 0.030676778
0.044934824 -0.021686945 0.03951557 0.06532329 -0.034264877 0.08663707 0.006872428 -0.017989213
-0.012313653 0.07896708 0.10280954 -0.01498536 0.0056455727 0.07722998 0.08409941 0.06856886
0.06461821 -0.053254254 0.026603665 -0.024129128 -0.06384209 -0.009219275 0.09884418 0.04244318
-0.05324004 0.053776495 0.035438143 0.032634526 0.008011984 0.052605614 0.0027119964 0.05616897
-0.054869786 -0.10094502 -0.01448493 0.020693857 -0.01344852 -0.041661233 0.02521694 -0.053247146
0.039531194 -0.033139665 -0.0052252985 0.0063587097 -0.009212382 0.030901706 -0.0022593527 0.027533324
-0.03360489 -0.10992364 -0.067670695 -0.018683366 -0.11841697 0.0033812756 -0.028615464 0.038627166
-0.010672445 -0.114788465 0.0073668608 0.066724576 -0.08765122 -0.011432756 0.0012013679 0.024444982
0.03437566 0.026939517 0.06952401 -0.015654398 0.03031632 -0.026101165 -0.030350603 0.06569948
-0.031511992 0.02544781 0.005723541 0.04512276 0.029067216 -0.018551826 -0.01962222 -0.03306637
0.029381793 0.00997918 0.021777423 0.025948934 0.026867056 -0.048362035 0.016928304 0.039353933
00000000: 423e 2cbd 582c 2c3d 5eb6 833c 0f45 013c
00000010: dd82 26bc 2fcd 4e3d 5aa4 3b3d 61ae 973d
00000020: 4fc2 973d 8e14 95bc 635b 293d 0cb8 773c
00000030: 1343 30bc 46d0 013d 8aed e3bc 7f0f b0bb
00000040: e567 e8bb e157 7d3d c54a ba3c 6a6d b4bc
00000050: 9b8b 293d 5f83 97ba 0f74 febc 2ac8 32bc
00000060: d243 703d 5627 43bc 49bc 0abd c3c7 89bc
00000070: db24 33bd 5a47 c1bc e804 c53c ef04 03bd
00000080: 43e8 abbc ac87 a6bd 8448 88bd 289d fa3d
00000090: e2b9 053d 12cb 47bd 0b15 ba3c e1ef 333d
000000a0: de38 6ebc 11df 723d 05da 89bd 5db4 8fbd
000000b0: 324a 1bbd 95b8 d6bc 3344 063d bc0f f83b
000000c0: ef4b 233d e9d2 313c 1884 893b a705 393d
000000d0: 57d9 91bc 40a5 8dbb 95af 6dbc 6c07 78bb
000000e0: 1e4c 79bc d427 203c 049c be3d 084e b43c
000000f0: ebb2 8c3d 8774 cd3b f9f0 dcbb 45be a93c
00000100: 9918 ecbc 652a 633d 9a3e ba3c eade 10bd
00000110: aca8 7b3d f8f6 69bc 0357 b3bd 4eb9 6d3d
00000120: 895a c23c 7f16 873d cd17 253d 63f6 223d
00000130: d9f8 d33c 6cb5 be3c a8cf be3d be88 7c3d
00000140: de09 b73c 7325 34bd 5a4c e8bc afe4 8bbb
00000150: 365a 16bd 7737 7abd af2c 27bd e3a0 bd3d
00000160: fd91 bc3d 8593 073e 018a 013e 26b9 023d
00000170: 9c7d 5fbc d062 51bd 2d4f ea3c 1100 81bd
00000180: b21d 08bd a2c1 04bd 7e06 4cbd 89be 193d
00000190: f385 6d3c 6091 7d3c e238 a03d c8da 3f3d
000001a0: dec7 6239 1c72 1dbd a5eb bebc 514c e93c
000001b0: 729e df3c 4228 0e3d 7ed9 e9bd 61a5 b2bd
000001c0: e6f9 983c b860 43bc 8890 963d c073 ae3d
000001d0: 2b61 783c afe9 d3bb 068c 0a3d 10c6 793d
000001e0: 1a22 783d fa95 4c3d becf 1c3c 1504 653c
000001f0: d275 86bd bc88 0c3d e2b3 b73b dc96 26bd
00000200: cce0 0b3d f61c 09bd 7058 a33b f66e 593d
00000210: 4bbe 3e3c 5eda 4d3c ba20 2e3b 6412 433d
00000220: 6658 b6ba 7526 15bd 5e0a 113d c76a 023d
00000230: 52eb 9b3d 053f c53d ac87 5b3d b894 bfbc
00000240: 0250 32bd 1011 5bbd f4c5 e33d a992 413d
00000250: 6706 b7bc 7cdf 353d e418 d73b a327 88bc
00000260: 5f66 afbd 315b dcbc a226 d13c d95f bcbc
00000270: 3084 febd ea6a b5bd 0bec 00bd 81f5 443d
00000280: b92b 803d b037 71ba 5a30 bd3a 4c27 53bd
00000290: f5c7 4a3d c082 d6bc e441 17bc de4d fb3c
000002a0: 940d 383d d2a8 b1bc 14db 213d 38c8 853d
000002b0: 5459 0cbd c76e b13d 1b32 e13b 1d5e 93bc
000002c0: 34bf 49bc 7eb9 a13d cf8d d23d 2885 75bc
000002d0: 7ffe b83b c02a 9e3d 503c ac3d d56d 8c3d
000002e0: 8d56 843d 2221 5abd eeef d93c 73aa c5bc
000002f0: a4bf 82bd 710c 17bc d16e ca3d e6d8 2d3d
00000300: 3a12 5abd be44 5c3d 9627 113d c8ab 053d
00000310: b244 033c fc78 573d c0bb 313b 6f11 663d
00000320: 24bf 60bd 43bc cebd 3352 6dbc 2a86 a93c
00000330: 2e57 5cbc f8a4 2abd c293 ce3c ae19 5abd
00000340: 76eb 213d 75bd 07bd fb38 abbb b95c d03b
00000350: 88ef 16bc 9325 fd3c a611 14bb 918d e13c
00000360: 48a5 09bd a51f e1bd ef96 8abd dc0d 99bc
00000370: 9984 f2bd 6498 5d3b fa6a eabc 8537 1e3d
00000380: 7bdb 2ebc 3716 ebbd b565 f13b e5a6 883d
00000390: 7c82 b3bd 7450 3bbc 3877 9d3a d840 c83c
000003a0: 7ecd 0c3d 43b0 dc3c 9b62 8e3d a73d 80bc
000003b0: ee59 f83c 1cd2 d5bc d4a1 f8bc 738d 863d
000003c0: b812 01bd ed77 d03c 8b8c bb3b a5d2 383d
000003d0: 5f1e ee3c 00fa 97bc c7be a0bc 9a70 07bd
000003e0: 16b2 f03c b77f 233c 9166 b23c dc92 d43c
000003f0: 4d18 dc3c 4517 46bd 3aad 8a3c 9731 213d

fc1.bias f4 [120]
0.048945688 0.02068847 0.025207039 -0.019863913 0.025195759 -0.004501318 0.06352966 -0.03507414
-0.009445616 -0.025368256 0.017802909 -0.009428886 -0.011553727 -0.027640814 0.054007117 0.001588975
0.018967167 0.0053336667 -0.037914004 -0.013914877 0.038507618 0.008857691 0.05914345 -0.04964506
-0.019196542 0.03807969 -0.044208024 0.077502154 -0.01949972 0.06604377 -0.044003718 0.026154285
0.064520776 -0.05620243 -0.042461026 0.032133773 -0.02490341 -0.052990414 -0.00490792 0.007954459
-0.012429112 0.004419362 0.07122784 0.027002567 -0.016068269 -0.009052493 0.01929402 0.018147532
0.04448144 -0.05898682 -0.0119383475 -0.030228652 0.027779724 -0.033569254 0.048115917 0.019692566
0.04298556 0.06258836 0.05759831 0.021574832 0.049831025 -0.017392721 0.05383135 0.0106661925
-0.018205598 0.00022266942 -0.048922643 0.010699128 0.072729096 -0.054305617 0.007634845 -0.036070365
-0.002314002 -0.06156771 0.052859306 -0.03966453 0.020584906 0.050994582 0.026558908 0.06710864
0.008222845 -0.022122458 -0.02609965 0.013787521 -0.003824852 0.007564988 -0.025570596 0.05676049
-0.024542948 0.047379144 -0.014959243 -0.045906957 -0.03735107 -0.044796363 -0.03487756 0.08078787
0.0138194095 -0.041667514 0.051223077 0.011807632 -0.055073805 0.07366638 0.013778707 -0.007516996
-0.016166098 0.023040801 -0.042705514 -0.027248647 -0.034555994 -0.042449087 0.01648969 -0.03933546
-0.0240226 0.018084675 -0.04013714 0.027440904 0.03735743 0.048408795 -0.028620468 -0.011954354
00000000: 467b 483d de7a a93c fe7e ce3c a5b9 a2bc
00000010: 5667 ce3c cb7f 93bb d71b 823d e7a9 0fbd
00000020: c9c1 1abc 17d1 cfbc 68d7 913c 9d7b 1abc
00000030: d84b 3dbc fd6e e2bc 9136 5d3d 2745 d03a
00000040: 0861 9b3c 0ac6 ae3b b74b 1bbd 39fb 63bc
00000050: 2aba 1d3d d91f 113c 6740 723d 9e58 4bbd
00000060: 1142 9dbc 73f9 1b3d 7913 35bd 73b9 9e3d
00000070: e0bd 9fbc f541 873d 3e3d 34bd 8341 d63c
00000080: 7823 843d 8534 66bd 9deb 2dbd b49e 033d
00000090: 3c02 ccbc 7a0c 59bd 9ed2 a0bb 6b53 023c
000000a0: 79a3 4bbc 4cd0 903b e7df 913d 7d34 dd3c
000000b0: 9aa1 83bc e850 14bc 7e0e 9e3c 22aa 943c
000000c0: 2c32 363d 2a9c 71bd 0f99 43bc 14a2 f7bc
000000d0: 4e92 e33c ea7f 09bd 3215 453d 4e52 a13c
000000e0: a011 303d 532e 803d 35ec 6b3d b4bd b03c
000000f0: 9e1b 4c3d 2e7b 8ebc 437e 5c3d 41c1 2e3c
00000100: e823 95bc 5e7c 6939 1c63 48bd 654b 2f3c
00000110: fef2 943d 916f 5ebd b92d fa3b 85be 13bd
00000120: 83a6 17bb 6c2e 7cbd 0083 583d 4677 22bd
00000130: ada1 a83c b2df 503d 1192 d93c 4170 893d
00000140: 1db9 063c 283a b5bc efce d5bc 0ee5 613c
00000150: 5eaa 7abb b8e3 f73b 6d79 d1bc b07d 683d
00000160: 4b0e c9bc a210 423d 9d17 75bc ef08 3cbd
00000170: 70fd 18bd 647c 37bd c6db 0ebd 1c74 a53d
00000180: ce6a 623c 8eab 2abd 4acf 513d cc74 413c
00000190: 1295 61bd 66de 963d 16c0 613c 2251 f6bb
000001a0: c46e 84bc 10c0 bc3c faeb 2ebd 8e38 dfbc
000001b0: 968a 0dbd 18df 2dbd 6315 873c 381e 21bd
000001c0: 0bcb c4bc 5026 943c d766 24bd bfcb e03c
000001d0: 1b04 193d 4d48 463d 7975 eabc 32dc 43bc

fc2.weight f4 [84, 120]
0.11799757 0.02230484 -0.034260064 0.109907076 0.06061374 0.03332974 -0.03549232 0.07482943
0.07689968 -0.0014386694 -0.15480052 0.012428172 0.06602166 0.060698397 -0.051049136 -0.052986387
-0.093525395 0.09250592 -0.072254255 -0.059057202 -0.032924432 -0.06264959 0.038790833 -0.05717749
-0.032885753 0.016422343 0.017301468 -0.045040186 -0.059181318 0.0061906716 0.07505489 -0.08092006
0.02794 -0.008914701 -0.0648688 -0.035819065 -0.05368142 0.1454282 -0.008524749 0.08745777
0.1022131 0.052115817 -0.055693857 -0.100347646 -0.004445273 -0.06349225 -0.043879542 0.038643405
-0.087746054 0.14152901 0.03381082 -0.010615628 0.08170156 0.07250696 -0.018270627 -0.006305503
0.08418403 0.081366144 -0.07768577 -0.046270873 0.018460188 -0.016703188 0.013561671 0.12516521
-0.053289156 0.09075663 -0.06766582 -0.0005036903 -0.02234046 0.005445442 0.051789314 0.084371135
0.06511555 0.08215209 -0.028853176 0.04325658 -0.0044553983 0.03598922 -0.029308489 -0.110558294
-0.086799875 0.08144639 -0.014851288 -0.04381584 -0.027131647 -0.03767596 0.13728042 -0.069352485
0.056569524 0.07234623 0.076536596 0.012648951 -0.07096329 0.040804733 0.06629984 -0.040561106
0.07385083 0.04388905 -0.022344708 0.03312949 -0.08535342 -0.02824172 0.08497113 0.0598367
0.035251472 0.011308239 0.008441185 -0.013341351 -0.06048077 -0.06816431 -0.06428386 -0.019998437
-0.001384548 0.04828373 -0.02653648 -0.00011225029 -0.092096284 0.09100329 -0.029716434 -0.113063894
0.0946008 0.026644154 -0.11147606 0.09388905 0.04663187 0.03406517 0.046592936 -0.058506638
-0.07059239 -0.0034317218 0.07756974 0.018720323 -0.083994664 0.088182524 0.026232488 -0.038268156
-0.08941917 0.007014239 -0.043909002 0.103707924 0.051457718 0.041647278 -0.0970249 0.011998297
0.024565369 -0.07457414 0.103536226 0.030661894 0.087694675 0.057437673 0.029258175 0.09496824
-0.11289588 0.03340178 -0.064305894 -0.042505067 -0.04776358 0.13832995 0.026431853 0.0013930353
0.050195742 -0.07945388 -0.04521193 -0.075004496 0.11680359 0.12524813 0.10162067 -0.03999502
0.1530071 0.16538982 -0.11376156 -0.0011987002 -0.020189278 -0.053532712 -0.03899141 -0.10304669
-0.027290104 0.0737996 -0.03018924 0.060860608 0.060608093 0.042349376 0.0394476 0.025742866
-0.002668996 0.056883145 -0.011335785 0.07265323 -0.025220955 0.04998151 0.104107685 0.048517965
0.052996565 0.14200173 0.1176733 0.031230994 0.038991213 0.04690733 0.05526365 -0.07994376
-0.015313567 0.026008029 -0.022159765 0.116735704 0.1223796 -0.020505227 -0.056560174 0.036047492
0.08323633 0.1125133 0.020924194 0.06108398 -0.12778091 -0.09966528 -0.008245998 -0.023449
-0.102421954 0.07986966 0.110770844 -0.086559854 0.039691772 0.038118444 0.10558699 -0.025101814
-0.043690227 -0.048659835 0.12985097 0.026089976 -0.07316101 -0.05862763 0.033095345 -0.12180693
-0.054827888 0.019283585 0.087137885 0.10609658 -0.0682372 -0.0012884189 0.047341738 -0.033721775
-0.1046096 -0.0470914 0.006464477 0.03606997 -0.020824978 0.04411392 -0.054034125 -0.07707664
0.056065507 -0.066527955 -0.032207657 0.06326881 -0.010272048 0.05129545 -0.04714156 0.07804953
00000000: b6a8 f13d a4b8 b63c 4854 0cbd f616 e13d
00000010: 1d46 783d c484 083d 6560 11bd 2c40 993d
00000020: 947d 9d3d bc91 bcba 0784 1ebe 889f 4b3c
00000030: 5d36 873d e29e 783d e618 51bd 4108 59bd
00000040: 3e8a bfbd be73 bd3d 0afa 93bd f7e5 71bd
00000050: c5db 06bd 6e4e 80bd 23e3 1e3d f232 6abd
00000060: 36b3 06bd 2688 863c cfbb 8d3c 0f7c 38bd
00000070: 1c68 72bd 1edb ca3b 61b6 993d 6bb9 a5bd
00000080: 6de2 e43c f70e 12bc efd9 84bd 03b7 12bd
00000090: 0ce1 5bbd 21eb 143e 64ab 0bbc 0f1d b33d
000000a0: 1a55 d13d 6577 553d 3e1f 64bd 1183 cdbd
000000b0: a7a9 91bb 3a08 82bd 09bb 33bd 8c48 1e3d
000000c0: 34b4 b3bd fbec 103e 377d 0a3d 2ced 2dbc
000000d0: 2653 a73d 877e 943d 48ac 95bc 659e cebb
000000e0: ad68 ac3d 4ba3 a63d b819 9fbd 8786 3dbd
000000f0: d239 973c 20d5 88bc c531 5e3c 4f2b 003e
00000100: bb45 5abd 9dde b93d 6194 8abd 150a 04ba
00000110: 5703 b7bc ae6f b23b 0821 543d c6ca ac3d
00000120: 4d5b 853d 5b3f a83d 7f5d ecbc d02d 313d
00000130: 97fe 91bb 6f69 133d 5b18 f0bc 636c e2bd
00000140: 22c4 b1bd 5dcd a63d d152 73bc 3d78 33bd
00000150: 3043 debc 1c52 1abd 3d93 0c3e ad08 8ebd
00000160: 72b5 673d 432a 943d 38bf 9c3d 8c3d 4f3c
00000170: 3455 91bd dd22 273d 36c8 873d 6723 26bd
00000180: 1b3f 973d 01c5 333d 400c b7bc cab2 073d
00000190: c6cd aebd 2e5b e7bc 5805 ae3d 5417 753d
000001a0: d963 103d 3146 393c e54c 0a3c af95 5abc
000001b0: afba 77bd bb99 8bbd 42a7 83bd c3d3 a3bc
000001c0: b979 b5ba 29c5 453d 0863 d9bc ea67 ebb8
000001d0: fa9c bcbd ef5f ba3d e16f f3bc 0b8e e7bd
000001e0: 10be c13d d744 da3c 8f4d e4bd e748 c03d
000001f0: 0f01 3f3d eb87 0b3d 3cd8 3e3d a8a4 6fbd
00000200: be92 90bd bde6 60bb e2dc 9e3d 5d5b 993c
00000210: 6505 acbd 0a99 b43d 84e5 d63c 12bf 1cbd
00000220: 6621 b7bd b4d7 e53b edd9 33bd d264 d43d
00000230: 54c5 523d 5696 2a3d feb4 c6bd 8194 443c
00000240: 503d c93c 54ba 98bd cd0a d43d a72e fb3c
00000250: 4499 b33d c443 6b3d d7ae ef3c b57e c23d
00000260: f535 e7bd 4ed0 083d cfb2 83bd cb19 2ebd
00000270: bea3 43bd 5ea6 0d3e 9d87 d83c 8296 b63a
00000280: 0d9a 4d3d b7b8 a2bd 2530 39bd f59b 99bd
00000290: b836 ef3d 0c41 003e 7f1e d03d d1d1 23bd
000002a0: e5ad 1c3e f35b 293e d2fb e8bd b41d 9dba
000002b0: fc63 a5bc 1e45 5bbd 75b5 1fbd 250a d3bd
000002c0: 7f8f dfbc 3f24 973d 6d4f f7bc f948 793d
000002d0: 3140 783d 8a76 2d3d ce93 213d b4e2 d23c
000002e0: 53ea 2ebb 4dfe 683d bab9 39bc 37cb 943d
000002f0: 2d9c cebc 69b9 4c3d 6936 d53d c6ba 463d
00000300: ed12 593d e768 113e b3fe f03d 24d8 ff3c
00000310: 40b5 1f3d e721 403d 235c 623d 8eb9 a3bd
00000320: c1e5 7abc ca0e d53c 6588 b5bc 2113 ef3d
00000330: 28a2 fa3d 94fa a7bc a4ab 67bd 89a6 133d
00000340: cf77 aa3d 5f6d e63d 3769 ab3c 3233 7a3d
00000350: 00d9 02be 4f1d ccbd 391a 07bc 1e18 c0bc
00000360: 9ac2 d1bd b492 a33d d3db e23d 4b46 b1bd
00000370: d793 223d 1622 1c3d fe3d d83d 52a2 cdbc
00000380: 86f4 32bd 894f 47bd a7f7 043e a5ba d53c
00000390: 71d5 95bd 8723 70bd fc8e 073d e975 f9bd
000003a0: 3593 60bd 9cf8 9d3c 5975 b23d 2a49 d93d
000003b0: f2bf 8bbd 2ae0 a8ba 69e9 413d d81f 0abd
000003c0: 8f3d d6bd e9e2 40bd f7d3 d33b 1bbe 133d
000003d0: 2599 aabc ccb0 343d e352 5dbd 5cda 9dbd
000003e0: f2a4 653d cf3f 88bd 2dec 03bd 1493 813d
000003f0: 184c 28bc 2e1b 523d 8217 41bd 6fd8 9f3d

fc2.bias f4 [84]
-0.06536104 -0.053800985 0.059578396 -0.09723014 -0.014291177 -0.056233793 -0.086822756 -0.04991752
0.08560514 -0.07007576 -0.0018693304 0.03173509 0.055183355 0.07275 -0.07027775 0.008699574
0.10668452 -0.040794875 0.064180665 -0.09477546 0.07485512 -0.09072809 0.047795303 -0.016528929
0.07762375 -0.076353736 -0.08115342 -0.04707948 -0.0778869 0.07742274 -0.020234734 0.073823415
-0.028048022 0.034389097 0.04640761 0.052241158 -0.013796835 0.11652702 -0.032350782 0.016332442
-0.08671539 -0.029693097 -0.028579067 0.004829412 -0.05141005 0.06600598 -0.04650745 0.07071397
-0.06502491 0.10278036 0.039507285 -0.012595436 -0.089234576 0.04681435 -0.046830405 -0.008713443
0.08865982 -0.0608271 -0.02488996 0.0025553582 -0.044625614 0.07877401 -0.019136513 -0.03497062
0.008423483 0.046989124 -0.08008478 0.031101996 -0.025493 -0.010868207 0.101333104 -0.08024504
0.0793031 0.035796467 -0.036974024 -0.0142153725 0.008247108 -0.02768535 -0.056775667 -0.006228929
-0.007066882 -0.017171912 -0.009940427 0.05253806
00000000: 02dc 85bd 6c5e 5cbd 7a08 743d 9820 c7bd
00000010: 8a25 6abc 6855 66bd 21d0 b1bd 5076 4cbd
00000020: bf51 af3d e183 8fbd 5204 f5ba a7fc 013d
00000030: f107 623d f4fd 943d c8ed 8fbd a888 0e3c
00000040: 6a7d da3d 8718 27bd 2771 833d a319 c2bd
00000050: a44d 993d a6cf b9bd 02c5 433d ad67 87bc
00000060: 33f9 9e3d 595f 9cbd c433 a6bd 6ad6 40bd
00000070: 2b83 9fbd d08f 9e3d 50c3 a5bc bb30 973d
00000080: f7c4 e5bc 95db 0c3d e815 3e3d d3fa 553d
00000090: 1f0c 62bc b8a5 ee3d 4182 04bd 9dcb 853c
000000a0: d797 b1bd f03e f3bc a61e eabc 0b40 9e3b
000000b0: 5893 52bd 252e 873d 997e 3ebd 7cd2 903d
000000c0: c82b 85bd 827e d23d 64d2 213d 165d 4ebc
000000d0: 9ec0 b6bd 67c0 3f3d 3dd1 3fbd d4c2 0ebc
000000e0: 4893 b53d d625 79bd 08e6 cbbc cc77 273b
000000f0: 59c9 36bd 4554 a13d 2dc4 9cbc 5a3d 0fbd
00000100: a602 0a3c ab77 403d 7d03 a4bd 9dc9 fe3c
00000110: b2d6 d0bc 9010 32bc bb87 cf3d 8357 a4bd
00000120: aa69 a23d 519f 123d 1372 17bd 98e7 68bc
00000130: e11e 073c 63cc e2bc 9a8d 68bd 0b1c ccbb
00000140: 4e91 e7bb 1cac 8cbc 2cdd 22bc 2632 573d

fc3.weight f4 [10, 84]
-0.077861354 -0.15537442 -0.08731535 -0.14584956 -0.016424105 -0.02270499 -0.10205415 -0.055585492
-0.15614986 0.009013761 0.020609034 -0.13065676 -0.051260732 -0.15278752 0.1309292 0.076896705
0.07021716 -0.17628777 -0.04038424 -0.012519228 0.06196752 0.06979764 -0.085475996 0.09251045
0.11565413 -0.05286606 -0.056965493 0.08056955 -0.017371505 0.08645932 -0.057068292 0.011738839
-0.08631268 0.0651426 -0.07682023 -0.087344006 -0.04482198 0.0662603 0.020958658 0.07274168
-0.054668855 0.064371645 0.008471416 0.13566221 0.023512557 0.01895813 0.06545225 0.07437627
0.052287154 -0.06969063 0.046144556 0.026916545 0.058467187 0.005526343 0.005270085 -0.08977238
-0.12857713 -0.03154352 0.08991944 -0.14373921 -0.0395884 0.053512514 0.12629014 0.06264278
0.032457646 -0.14970382 0.053509686 0.0005728438 0.09346021 0.037396755 0.13511519 0.14708583
-0.13867407 0.056431808 -0.06323615 0.08359586 0.05615945 0.024264215 -0.113242485 -0.1218017
-0.014209075 0.011384873 0.07862171 0.10269919 0.054733492 0.12152645 0.07808557 0.047397956
0.03737828 -0.12098917 0.11929475 -0.16717134 -0.11835715 0.037137173 -0.15878281 -0.14634134
-0.010472866 0.097539335 -0.0041016275 0.034844473 -0.025820542 -0.14801145 0.065688305 0.05674351
-0.036842227 0.09696535 0.083047636 -0.05311991 0.13690683 -0.057390783 -0.035342548 -0.14328483
0.15626 -0.02671848 -0.115952745 0.084063314 -0.021744693 -0.027546216 0.034062684 -0.0756281
0.03970621 0.018359596 0.027069822 -0.124755025 -0.011808351 -0.17481393 0.038480554 0.0692165
0.044779785 -0.009713295 -0.07445054 -0.113572255 0.18140611 0.07910062 0.0969354 0.008695192
-0.10697379 -0.04799831 0.02849252 -0.00039995904 -0.07258122 -0.21544498 -0.016546123 -0.096275024
0.055798598 -0.14007834 -0.094329014 0.12284484 0.14853612 0.08087661 0.074822195 0.015470057
-0.09269009 -0.09265787 0.031171812 0.044829194 0.06616738 -0.15332279 0.066105485 -0.048873827
-0.029795296 -0.03297636 0.0040156175 0.004451388 -0.06783993 0.064684615 -0.050240673 -0.04048324
-0.18154372 0.012004679 0.13548905 -0.07586028 -0.0111011565 0.0032921638 0.15580946 -0.03654344
0.033968806 0.07400843 -0.042316403 0.005339774 -0.060050104 -0.14065883 -0.08932394 -0.12325326
0.07606004 0.05027233 -0.005482521 0.14817518 0.13389559 -0.017548941 -0.12217618 -0.019703964
-0.06684049 -0.03601155 0.009766349 -0.08600292 0.0025089115 0.097803265 0.112517126 0.08048723
0.11323255 -0.003898783 -0.012776292 0.021179948 0.015732048 -0.16461821 0.047572166 -0.0023831981
-0.057471834 -0.108328395 0.05960844 0.14318617 -0.1921224 0.022045836 -0.121122286 0.12652513
-0.029221732 -0.052984986 -0.017128255 0.051672813 0.16200992 0.014966528 0.0021959625 -0.065563165
0.024434268 -0.080873474 0.101883166 -0.0876522 -0.105318286 0.015071722 0.097819656 -0.00061297073
-0.080044255 -0.033782743 -0.16173393 0.01805887 -0.09446384 0.041304547 -0.06836982 -0.09873433
0.09505665 0.06270248 0.032289345 0.086993955 -0.0719948 0.019837948 -0.050522324 0.03385704
-0.096837156 0.1354751 -0.15647866 -0.11766934 0.12655082 -0.14112067 -0.09756055 -0.03217842
00000000: c675 9fbd 791a 1fbe 64d2 b2bd 9659 15be
00000010: d88b 86bc d1ff b9bc c401 d1bd 9dad 63bd
00000020: c0e5 1fbe 74ae 133c 47d4 a83c e3ca 05be
00000030: c6f6 51bd 5574 1cbe 4e12 063e 057c 9d3d
00000040: 04ce 8f3d c884 34be f269 25bd 731d 4dbc
00000050: a7d1 7d3d 11f2 8e3d 0a0e afbd 1e76 bd3d
00000060: 13dc ec3d 158a 58bd a654 69bd a601 a53d
00000070: b04e 8ebc 9511 b13d 71c0 69bd 4254 403c
00000080: b4c4 b0bd 7c69 853d ed53 9dbd 6ae1 b2bd
00000090: 4197 37bd 7bb3 873d 7eb1 ab3c 97f9 943d
000000a0: 73ec 5fbd 48d5 833d b2cb 0a3c 09eb 0a3e
000000b0: 689d c03c 154e 9b3c d40b 863d 9652 983d
000000c0: 0e2b 563d f6b9 8ebd 1302 3d3d 1680 dc3c
000000d0: 4a7b 6f3d 5316 b53b adb0 ac3b 95da b7bd
000000e0: b9a9 03be c733 01bd af27 b83d 5f30 13be
000000f0: 7227 22bd f02f 5b3d 3452 013e dc4a 803d
00000100: 4ff2 043d f54b 19be f92c 5b3d e62a 163a
00000110: 1168 bf3d 572d 193d a35b 0a3e ab9d 163e
00000120: 9300 0ebe 0a25 673d f481 81bd 4e34 ab3d
00000130: 7407 663d bfc5 c63c adeb e7bd 2b73 f9bd
00000140: 2ecd 68bc 9e87 3a3c 6b04 a13d f453 d23d
00000150: 3a30 603d dce2 f83d 54eb 9f3d 5c24 423d
00000160: f819 193d 2cc9 f7bd ce50 f43d f72e 2bbe
00000170: 3c65 f2bd 261d 183d f697 22be 81da 15be
00000180: 6296 2bbc b4c2 c73d f266 86bb 14b9 0e3d
00000190: 9a85 d3bc 5090 17be 9787 863d e26b 683d
000001a0: e0e7 16bd c595 c63d e114 aa3d 4394 59bd
000001b0: 4e31 0c3e 9912 6bbd 59c3 10bd 42b9 12be
000001c0: 9f02 203e b7e0 dabc a278 edbd 6329 ac3d
000001d0: ed21 b2bc 9aa8 e1bc 5085 0b3d e8e2 9abd
000001e0: fba2 223d dd66 963c 88c1 dd3c 907f ffbd
000001f0: d077 41bc 6c02 33be c99d 1d3d 61c1 8d3d
00000200: 026b 373d 8324 1fbc 8679 98bd 9298 e8bd
00000210: 86c2 393e 81ff a13d 1186 c63d 4776 0e3c
00000220: 1315 dbbd e099 44bd 2569 e93c 98b1 d1b9
00000230: 76a5 94bd 9c9d 5cbe bc8b 87bc d72b c5bd
00000240: 128d 643d b270 0fbe 922f c1bd 1396 fb3d
00000250: da19 183e a3a2 a53d 613c 993d 1f76 7d3c
00000260: 4dd4 bdbd 69c3 bdbd 075c ff3c d19e 373d
00000270: c382 873d a600 1dbe 5062 873d ec2f 48bd
00000280: 4415 f4bc 3812 07bd 7195 833b f3dc 913b
00000290: a9ef 8abd 5e79 843d 2ac9 4dbd c1d1 25bd
000002a0: 99e6 39be 46af 443c a4bd 0a3e a25c 9bbd
000002b0: a0e1 35bc 58c1 573b 848c 1f3e 93ae 15bd
000002c0: e022 0b3d bb91 973d f753 2dbd 45f9 ae3b
000002d0: 19f7 75bd de08 10be 78ef b6bd 356c fcbd
000002e0: 5ec5 9b3d 5cea 4d3d b8a6 b3bb 3cbb 173e
000002f0: ed1b 093e ccc2 8fbc 8137 fabd 356a a1bc
00000300: abe3 88bd d980 13bd 0903 203c 4d22 b0bd
00000310: 8d6c 243b 144d c83d 616f e63d 7dd6 a43d
00000320: 78e6 e73d b982 7fbb a753 51bc 9281 ad3c
00000330: 7fe0 803c ad91 28be 08db 423d 6e2f 1cbb
00000340: 9667 6bbd 47db ddbd fb27 743d 659f 123e
00000350: bcbb 44be 7899 b43c f60e f8bd ce8f 013e
00000360: 6a62 efbc c906 59bd 8e50 8cbc dfa6 533d
00000370: eee5 253e 2b36 753c 23ea 0f3b fb45 86bd
00000380: 602a c83c fea0 a5bd 1fa8 d03d ff82 b3bd
00000390: 1db1 d7bd 62ef 763c ac55 c83d c5af 20ba
000003a0: 3eee a3bd c65f 0abd 949d 25be 32f0 933c
000003b0: 4276 c1bd f52e 293d 7a05 8cbd 3935 cabd
000003c0: 10ad c23d 286a 803d d541 043d e329 b23d
000003d0: 0272 93bd 3183 a23c 7ff0 4ebd aead 0a3d
000003e0: 8f52 c6bd fcb9 0a3e f13b 20be 9ffc f0bd
000003f0: 8a96 013e f081 10be d3cd c7bd 85cd 03bd

fc3.bias f4 [10]
0.07751276 -0.028187988 0.07171176 0.088339254 0.0814391 0.07723557 -0.0179655 -0.026793068
0.13583753 0.030035064
00000000: 03bf 9e3d 7fea e6bc 9ddd 923d 36eb b43d
00000010: 8bc9 a63d af2d 9e3d 622c 93bc 237d dbbc
00000020: fe18 0b3e 180c f63c
