Models/model_fashion.pth (torch, 181324 bytes, 10 tensors)

conv1.weight f4 [6, 1, 5, 5]
000000 39 e3 1b be c5 a0 b4 3d 01 df 19 3e d2 f2 41 3e
       -0.15223397 0.08819727 0.15026475 0.18940285
000010 71 e1 d1 3d 1f b3 70 3d 33 49 47 be 03 c7 88 bc
       0.10248078 0.058764573 -0.19461517 -0.016696459
000020 96 7b be bd c0 6d 78 bb 1a a7 28 bd e4 5e 92 be
       -0.09300916 -0.0037907213 -0.041174985 -0.2858802
000030 52 36 ba be 76 5c f0 bd 96 1f 94 be 8c 25 25 be
       -0.36369568 -0.117363855 -0.28930348 -0.16127604
000040 b0 7e a2 be 5a 53 56 be 7f 03 90 be 0c 82 bd bd
       -0.3173728 -0.20930234 -0.28127667 -0.0925332
000050 8a 3b 7f be 69 87 d8 bd 71 f2 a1 be 83 b2 97 be
       -0.24925056 -0.105727024 -0.3163028 -0.2962838
000060 c0 26 c6 bd 06 b5 ae be f3 da 18 be 7c 73 0a be
       -0.0967536 -0.34122485 -0.14927272 -0.13520616
000070 4a 9e 0d be 13 ae 99 3e 4e 91 85 be 52 c6 80 be
       -0.13829914 0.3001562 -0.2608742 -0.25151306
000080 18 af c7 3d 50 e9 45 3e 5f dd 1f 3e 30 6a 99 be
       0.09750193 0.19327283 0.1561179 -0.29963827
000090 51 d0 ac 3d 69 42 03 3e 96 e0 0f 3e 4e e5 e2 3d
       0.08438171 0.12818302 0.14050516 0.11078893
0000a0 d7 05 94 be 81 83 d0 bd e1 3b 9c 3e 88 e7 b9 3e
       -0.28910705 -0.101813324 0.30514434 0.36309457
0000b0 ae dc b3 bd 26 80 03 be e4 18 11 3e 31 88 8e bd
       -0.08782326 -0.12841853 0.14169651 -0.0695957
0000c0 fe 39 09 3d 3f e8 25 3e 9b 29 2c be e1 4d 2b be
       0.03350257 0.16201876 -0.16812746 -0.16728927
0000d0 96 7b 88 3c 43 42 84 be 37 a8 5b bd 91 34 80 bd
       0.016660493 -0.25831804 -0.05362722 -0.06260026
0000e0 55 60 92 be cc f3 4d be 12 90 ab 3c 17 49 c0 bc
       -0.2858912 -0.20112532 0.020942722 -0.023472352
0000f0 c3 95 4a 3e ae 0a 2e be 34 bf a4 be c7 5d 01 be
       0.19783692 -0.16996261 -0.32177126 -0.1263343
000100 14 eb 50 be 61 a0 19 3d 87 1e 51 3d 65 04 58 bd
       -0.20402175 0.037506465 0.051054504 -0.052738566
000110 2e 5d 3f be 70 31 ff bd 6a 2e 7f 3e 55 e4 80 be
       -0.18687889 -0.12460601 0.2492005 -0.25174204
000120 e0 ab 6c 3d c7 6d 40 bd 70 83 6e be ca 30 8b be
       0.0577811 -0.04697969 -0.23292327 -0.2718566
000130 97 6d 2b be 69 7e b2 3d 85 f5 d2 3d 52 7a ac bc
       -0.16741024 0.08715517 0.103007354 -0.02105442
000140 be c7 98 be 84 33 8b 3c 57 57 1f be c6 e4 26 bd
       -0.2983989 0.016992338 -0.15560661 -0.04074552
000150 64 f5 af bd 46 0a 1e be a7 c0 9c be 1b e5 7c bd
       -0.085917264 -0.15433607 -0.30615732 -0.06174193
000160 01 05 75 bd 5d 33 b8 3d 88 42 7d be e2 6e f6 bd
       -0.059819225 0.08994172 -0.24732411 -0.12032868
000170 f6 94 57 be dd 38 1a be 27 b0 85 3d eb 38 5f 3c
       -0.21052918 -0.15060754 0.06527739 0.01362441
000180 fc 11 87 be 04 02 d0 bd 39 c4 62 be e8 10 9b bd
       -0.26380908 -0.101566344 -0.22145166 -0.07571584
000190 b5 ca 86 be 04 5f 62 be c7 84 49 3e 40 86 07 bc
       -0.26326528 -0.22106558 0.19679557 -0.008271754
0001a0 38 a2 ec bd 8c 60 4a be ad 98 70 be cf 5e 01 3e
       -0.11554378 -0.19763392 -0.23495741 0.12633823
0001b0 c2 6b 0f 3d 20 dc 53 3c bd 17 3b 3d 23 3a 56 be
       0.035014875 0.0129309 0.045676935 -0.20920615
0001c0 ef 9e 47 3e 27 22 08 be e9 17 44 3e 60 ea 1b be
       0.19494222 -0.13294278 0.19149746 -0.15226126
0001d0 0e cb 56 be 31 08 a6 3e 8f d1 9f bd 7f 00 72 bc
       -0.20975897 0.32428125 -0.07803642 -0.014770626
0001e0 ba 80 70 3d ca 82 c9 3b fc 91 86 3e cf fe a8 3d
       0.058716513 0.0061496245 0.26283252 0.08251726
0001f0 33 49 91 3a 50 ae 4b be 7e 17 d0 be e3 6c a8 bd
       0.0011084437 -0.19890714 -0.40642923 -0.082238935
000200 10 21 27 3e cc 75 4c 3e e7 40 eb bd 87 d1 bb be
       0.16321206 0.19966811 -0.114869885 -0.36683294
000210 0d 53 80 be 8a e3 04 3e 51 18 25 3d ac 3f 09 be
       -0.25063363 0.12977424 0.040306393 -0.13403195
000220 7e f0 00 be bd 4e 57 bd e4 d4 85 3d 55 f0 b6 3c
       -0.1259174 -0.052565325 0.06534746 0.022331396
000230 ed 71 51 3c 85 86 fd bd d5 04 db 3c a4 89 98 3e
       0.01278351 -0.12379173 0.026735703 0.2979251
000240 50 99 e7 bc 41 3b 67 bd 5c 88 c6 bc 1a a0 cf bd
       -0.028271347 -0.056452993 -0.024234943 -0.10137959
000250 a7 f9 8a 3e 6f df 5b bd
       0.27143595 -0.05367988

conv1.bias f4 [6]
000000 9b 70 06 bd b3 d4 94 3c 33 c5 7b 3d 77 2f 90 be
       -0.032822233 0.01816783 0.06146736 -0.28161213
000010 5d 7d 27 3e ad 9e 9b 3d
       0.16356416 0.075986244

conv2.weight f4 [16, 6, 5, 5]
000000 d3 95 b1 3d 0b fd b2 bd 7f 8b de bd 21 19 a6 bd
       0.08671155 -0.0873967 -0.108664505 -0.08110262
000010 56 27 ba 3d b5 ea 12 3c aa 28 4f 3d a5 a6 15 3d
       0.09089534 0.008967091 0.05057589 0.036535878
000020 63 01 a9 bc b1 26 66 3d cd 0a 03 3e 78 82 c6 3d
       -0.020630544 0.056189243 0.12797089 0.09692854
000030 ba 80 09 3d 14 02 d0 bd de 69 50 3d f9 ed fa 3d
       0.03357003 -0.10156646 0.050882213 0.12252421
000040 89 e9 94 3d 1b 65 4a bd 68 b2 3c bd ee 70 66 bd
       0.07271106 -0.049412828 -0.04606858 -0.056260042
000050 7e 1e 3a 3d 51 8f 97 3d 3f 4c a2 bd 08 7d c3 bd
       0.045439236 0.07400382 -0.07924699 -0.09545332
000060 52 fb f8 bc 15 8d 9e bc 68 eb ef 3d bf be 7d 3e
       -0.030393276 -0.019354383 0.11714822 0.24779795
000070 fa bb ac 3c 9f bd c2 be f0 45 4e 3d f8 e4 01 3d
       0.021085728 -0.38035294 0.050359666 0.031712502
000080 d9 ae a0 3d 45 2b 96 bd 06 6b 75 bd d9 d3 87 bd
       0.078458495 -0.07332472 -0.05991652 -0.066322036
000090 05 9c 0a bd 46 19 17 3e 3d 07 13 bd a6 70 09 be
       -0.033840198 0.14755735 -0.035895575 -0.13421878
0000a0 b6 7b bc bc b7 6c 68 3d ab 93 cb 3c 98 33 06 bd
       -0.023008209 0.056744304 0.024850687 -0.032764047
0000b0 ef a6 8f bd 78 79 a5 3c f8 6b 8a bc 46 b8 07 3d
       -0.07014262 0.020199522 -0.016897187 0.03313472
0000c0 5e ae 80 3c 7c 5a 8c bd ee 27 80 3d 67 f1 04 bd
       0.015708145 -0.06853196 0.06257616 -0.03245678
0000d0 ec e4 5b bd 09 4c 3a bd 97 a0 01 3e 33 22 bc 3d
       -0.053685114 -0.04548267 0.12658916 0.091862105
0000e0 c2 c1 17 3c 55 c9 49 3d 4e 95 0c bc 00 30 ec bc
       0.009262504 0.04926427 -0.008580519 -0.028831482
0000f0 81 1f 1e bd 71 8e 3e bd 68 14 89 3d 98 01 0d bd
       -0.038604263 -0.04652256 0.06693345 -0.034425348
000100 0a 57 ef 3d 51 5d d3 3d c7 bf 6f 3d be 5c 02 3c
       0.11686523 0.10320533 0.058532503 0.007956682
000110 d7 2f 06 3b 50 18 89 3d fa 10 7a 3d 27 ca 2b bc
       0.0020475292 0.0669409 0.061051346 -0.010485209
000120 ed f1 d7 bc 97 5e 14 3d 11 eb 55 3c ba e2 3a 3d
       -0.026360476 0.03622302 0.0130565325 0.04562638
000130 99 25 9f 3d 0a 81 98 3c 02 ec f0 bd cc 1c 50 bd
       0.07770843 0.018616218 -0.11763765 -0.050808713
000140 6e 9e e2 3d 14 19 9c 3c 29 68 cf 3d 36 07 5d bd
       0.11065374 0.019054927 0.10127289 -0.053961955
000150 31 c5 7f 3d ef 31 25 3d ac 4d fa 3d c5 bf 71 bc
       0.062443916 0.040330824 0.12221846 -0.014755194
000160 16 43 49 bd cd 28 0d bd 41 ef 97 3d db a9 dc 3d
       -0.049136244 -0.03446274 0.07418681 0.10774585
000170 9f 0a 52 3d d8 a6 8d ba cc 1e 8a 3d 48 a7 6e 3d
       0.05127966 -0.001080717 0.06744155 0.058265
000180 0b d7 09 3d 92 86 03 bd 1e b1 fc 3c b9 3e 95 3d
       0.033652347 -0.032110758 0.030846175 0.07287354
000190 7b dd 9e 3d ac 64 01 bc d5 41 f9 3d 48 20 89 bd
       0.07757088 -0.007897537 0.121707596 -0.0669561
0001a0 e7 46 14 be a6 86 15 3a 2d 02 80 bd 7b 87 fe 3c
       -0.14480172 0.0005703963 -0.06250415 0.031070461
0001b0 60 1e ed bd d9 f7 8f bd 78 fa 81 bd e1 f9 13 bd
       -0.11578059 -0.07029695 -0.06346601 -0.036126975
0001c0 db 77 24 3e e9 4c 63 3d 4d 1f 14 3d 81 4a 95 3c
       0.16061346 0.05549327 0.036162663 0.018224003
0001d0 df b4 97 bd ae 49 06 3e 1a f4 8d bd ed 92 1f bc
       -0.07407545 0.13114044 -0.06931324 -0.00973962
0001e0 e3 3a 39 3c 17 c8 6b bc da c1 14 3e 1e 86 3c 3c
       0.011305544 -0.014390967 0.14527074 0.011506585
0001f0 10 25 14 3d fb 5a 15 bd 42 ba ec 3c e4 2b 0c 3e
       0.036168158 -0.03646372 0.028897408 0.13688618
000200 d1 44 fb bd 15 19 45 bc fd bc b9 3d a8 3a 11 3d
       -0.12268985 -0.012029906 0.0906925 0.03545633
000210 73 1f a9 3d 5b 4f 88 3a 70 79 66 3d bd fb 6a 3d
       0.082579516 0.0010399626 0.056268156 0.057368983
000220 f3 39 52 3d be f6 af 3c 41 f8 9a bb ed d4 50 3c
       0.051324796 0.02147996 -0.004729301 0.012746078
000230 dd c0 6b 3d 01 64 0e bd 24 c2 b8 3c d4 8c cd bd
       0.057556976 -0.03476334 0.022553511 -0.100366265
000240 4e 3e f7 bd 22 a8 12 bd f9 2c e6 3c d2 b8 82 3d
       -0.120724306 -0.035804875 0.028097617 0.06382908
000250 f9 82 aa bd 29 36 ad bd 73 07 9c 3c 60 8c 18 bd
       -0.08325762 -0.08457596 0.01904652 -0.037243247
000260 78 51 46 bd 96 66 1a 3d b0 20 05 3e cd 66 16 bc
       -0.04841754 0.03769549 0.1300075 -0.009179783
000270 1d a5 dd bd 24 1d 1b be 7a b4 24 bd 0f 56 b4 bc
       -0.108225085 -0.15147835 -0.04021118 -0.022013692
000280 fe c6 bf bb bc 13 16 bd eb b4 42 bd c6 85 a4 3d
       -0.005852579 -0.036639914 -0.047535818 0.08033328
000290 6f d6 8c bd 08 76 c9 39 0e 37 b4 bc a4 e6 f3 3d
       -0.068768375 0.00038425648 -0.021998908 0.119092256
0002a0 96 05 e8 3c 19 dc be 3d 20 4d c7 3d c7 11 d9 3c
       0.028322976 0.09319324 0.09731507 0.026497735
0002b0 b6 07 db 3d 69 29 0a 3e 6f 10 ca 3a ad 6d 78 3e
       0.1069483 0.13492359 0.0015416275 0.24260588
0002c0 65 be 85 3e ec da b2 3d ed 37 a3 bd a8 b2 d1 bd
       0.26121822 0.08733162 -0.07969651 -0.10239154
0002d0 45 f6 19 3e 7d a0 1a 3e f6 5a c7 3d 30 38 9a bb
       0.1503535 0.15100284 0.09734146 -0.004706405
0002e0 ba a2 59 3d cb 03 9d 3d 86 eb 0f 3e 31 7a b7 3c
       0.053133704 0.07666739 0.14054689 0.022397133
0002f0 e0 c4 d1 3c bb 75 05 3e 1e 0c 17 3e 0c 12 29 3e
       0.025606573 0.13033192 0.14750716 0.1651079
000300 cd e6 64 3c 42 8b dd 3d 2e 31 49 3d 32 09 07 3e
       0.013971043 0.10817577 0.049119167 0.13187101
000310 0f 0d 12 3e 46 21 69 bc c1 5e 95 3c c3 bf 1f 3e
       0.14262794 -0.014229124 0.018233659 0.15600495
000320 d4 9b 0e 3d 75 9c 92 bb 5a db 21 bd 95 fe a3 bc
       0.034816578 -0.0044742175 -0.03951583 -0.020018855
000330 ad 6a 51 bc 6f a6 9f bd a2 ad e0 bd 07 c9 a5 bd
       -0.012781781 -0.077954166 -0.10970618 -0.080949835
000340 30 13 88 3d 8f 4a 41 3d cf 27 66 3d 1f bf 0a 3d
       0.06644285 0.047190245 0.05619031 0.033873674
000350 42 e5 c3 3c 39 4a ab bd e7 29 6b 3d b4 be dd bb
       0.02391303 -0.08363766 0.057413008 -0.0067671183
000360 14 83 2d bc 39 4a 0c 3e de ff 46 3c 9a bb 91 bd
       -0.0105903335 0.13700189 0.012145964 -0.0711586
000370 8d 57 88 bd e1 a7 08 bd be f4 9f 3d 19 75 46 3c
       -0.06657324 -0.033363227 0.07810353 0.012112879
000380 42 65 2e 3d 39 c8 a2 3d c8 4e 97 3c 7c 87 28 be
       0.042577036 0.07948346 0.018470183 -0.16457933
000390 ee 56 c4 bd d2 70 93 bd 61 4c 89 3d 36 5c 0d bd
       -0.09586893 -0.07199253 0.06704021 -0.034511767
0003a0 65 45 87 bd e2 5a 0e be d6 92 2b bd 95 50 92 39
       -0.06605033 -0.13901857 -0.04188808 0.00027907328
0003b0 47 f4 98 3d 52 93 7e bd 8a 2a 92 bd 98 8c 31 3d
       0.07468467 -0.062152214 -0.0713702 0.04334697
0003c0 78 0b f4 3c 95 1f 84 bd 20 c7 a2 3d 5a d0 ec 3d
       0.029790625 -0.06451336 0.07948136 0.115631774
0003d0 6a e6 a4 3d c0 40 8f bc 79 f6 48 bd 43 5b 47 3c
       0.080517605 -0.01748693 -0.04906318 0.012167755
0003e0 eb 4c 00 3e f3 88 a5 3d f9 0f 5d 3e 4b 80 35 3d
       0.12529342 0.080827616 0.21588124 0.044311803
0003f0 5f 3b 3b bc e3 9c 2b bd 01 63 24 bd 56 f0 13 3e
       -0.011427729 -0.041897666 -0.04013348 0.1444715

conv2.bias f4 [16]
000000 5e 3d 2a 3d 28 ac bd 3d 59 8a 9d 3a 74 cc 33 3d
       0.04156243 0.09261352 0.001201938 0.043896154
000010 3d ed 96 3c d9 98 56 bd 77 f6 5f bc 32 5e b2 bd
       0.01842367 -0.05239186 -0.013669602 -0.087093726
000020 af 44 43 bd 01 ba e6 3d 69 18 89 ba 90 9c 39 3d
       -0.047672924 0.11265946 -0.0010459545 0.045315325
000030 97 61 bf bb ad 31 e7 3c 54 19 f8 3d 1d cd a7 3d
       -0.005840491 0.02822193 0.12114206 0.08193419

fc1.weight f4 [120, 256]
000000 8d 36 3a 3d aa 3d cd bc f7 4c e8 3c 86 eb a2 3b
       0.04546218 -0.025053818 0.028357012 0.0049719242
000010 6e a1 16 3d 03 b8 9f 3d 97 70 a0 3d bf de 0e 3d
       0.036775045 0.07798769 0.07833975 0.034880396
000020 ed e3 0d 3d 93 f0 3a bc 55 1a 04 bd bd 7a 04 3d
       0.034641195 -0.011409896 -0.032251675 0.032343615
000030 2f b7 07 3d 7c 00 48 3d 8c 0e d1 3c 4c 75 0a bd
       0.033133682 0.048828587 0.025519632 -0.03380327
000040 7b b1 5e 3d 9a 32 aa bc 65 b2 0c bd 09 68 55 3c
       0.054368477 -0.020776082 -0.034349818 0.013025292
000050 18 fc 35 bc aa c3 d1 bc cc e8 6f 3d d9 1b 65 3c
       -0.011107467 -0.025605995 0.05857162 0.01398369
000060 d4 20 67 3d c0 fb 85 bc 29 b1 39 3d 78 58 78 3c
       0.05642779 -0.016355395 0.04533497 0.015157811
000070 08 e7 1d bd 40 e1 bf ba 00 4f b7 3d d6 67 aa 3c
       -0.038550407 -0.0014639273 0.08950615 0.020801466
000080 78 d9 59 3c fe 93 8a b8 7b 26 30 3c 04 2c 3b 3d
       0.0132964775 -6.6079185e-05 0.010751362 0.045696273
000090 41 3e 1b 3d 5f af ae 3b 28 15 1c bd cf f3 9a 3d
       0.037901167 0.0053309645 -0.038106114 0.07566034
0000a0 05 80 0f bc 5c 89 8c 3d b7 80 a0 3d 39 01 a8 3d
       -0.00875855 0.06862137 0.078370504 0.08203358
0000b0 be 3f 38 3d 83 d0 62 bd ab 80 e1 3a f5 3c 7c 3d
       0.044982664 -0.055374634 0.0017204484 0.06158157
0000c0 ba 84 ec bc b1 36 4a bd 1d f5 59 3d 6e 77 80 bd
       -0.028871883 -0.049368564 0.053212274 -0.062727794
0000d0 98 a2 16 bb 50 e3 88 bc 9c 4d e8 3c 90 f4 8a bd
       -0.0022985097 -0.016709954 0.02835732 -0.06784928
0000e0 50 a1 05 3d 33 ac 1a bd ad 98 6b 3d 77 db 9b 3d
       0.032624543 -0.03776188 0.05751865 0.07610219
0000f0 67 14 89 bc fe 9e a3 3b 64 ea 40 3d 25 49 57 bc
       -0.016733361 0.0049933186 0.047098532 -0.013139998
000100 fb 07 f7 bc 52 fa 13 bd 54 06 10 bd 49 c9 42 3d
       -0.030155173 -0.036127396 -0.035162285 0.04755524
000110 6a 23 30 bd 85 40 0d bd 0e 26 10 3d 3c 4b 83 bc
       -0.043002523 -0.03448536 0.03519254 -0.016027085
000120 25 53 3b 3d 88 39 c1 3b 5d a2 55 3c 89 04 3a 3d
       0.04573359 0.005896751 0.013039199 0.04541448
000130 4d f4 00 3d d2 8b c4 bc 1c 47 85 bc f1 92 82 3d
       0.031482983 -0.023992453 -0.01626926 0.06375683
000140 bc 59 3a 3d 42 19 7e 3a 08 6c 75 3d 13 3a d1 3c
       0.045495734 0.0009693095 0.05991748 0.025540387
000150 f1 bc 13 3d 6c 47 3a 3c 15 15 20 bd 87 f0 22 bd
       0.03606886 0.011369567 -0.039082605 -0.039780166
000160 42 d6 d6 bc 8d 9b a0 3c cd bf e0 3c 34 82 7c 3b
       -0.026225213 0.019605422 0.027435208 0.0038529756
000170 29 81 4d bd 52 0b b3 3c aa 6b 63 3d bc dc a0 3d
       -0.050172005 0.021855984 0.0555226 0.07854602
000180 24 3b 33 3b 87 17 08 bd 06 2d 66 bd ad d6 26 bd
       0.0027348483 -0.033225562 -0.05619528 -0.040732075
000190 f6 7b 31 bd c1 01 2c 3d d1 78 4a bd a0 72 90 3c
       -0.04333111 0.04199386 -0.049431626 0.017632782
0001a0 82 48 9e bc 8c a9 8c 3d 80 5d b1 3b 64 a0 42 3d
       -0.019321684 0.06868276 0.0054127574 0.04751624
0001b0 c3 07 bd 3a 32 d7 81 3d 53 3b 81 bc c2 25 de bc
       0.0014421869 0.063398734 -0.015775358 -0.027117614
0001c0 74 88 7a bc 2e b5 73 3b 2a fd 0e bc 56 10 58 bd
       -0.015291322 0.003718685 -0.008727351 -0.052749954
0001d0 26 86 0d 3d 14 9f 89 3d 5b ee d6 3c e3 a8 52 bc
       0.034551762 0.06719795 0.026236704 -0.012857649
0001e0 cd 9a c9 bc e3 88 34 3d a9 6d fe 3c 0c 45 97 bc
       -0.024609948 0.044075858 0.03105815 -0.018465541
0001f0 6d cd 84 bc 42 a3 3e bd 05 fc 27 bd 8a d7 41 3c
       -0.016211236 -0.046542414 -0.04101183 0.011831174
000200 5f 53 a9 3c e5 5d a1 3a c6 6a cf bc 89 92 17 3d
       0.020669637 0.0012311308 -0.025319468 0.03700498
000210 df 81 18 3d 6d 19 84 3d be a7 2c 3c ff e6 c0 3c
       0.03723323 0.06450162 0.01053804 0.023547648
000220 ff f2 7a 3d 59 b9 40 bd 0b a2 f2 3c 87 ec ec bc
       0.061266895 -0.04705176 0.029618284 -0.028921379
000230 62 37 5d 3d b8 d8 04 bc 20 76 04 b9 e2 8a 6d 3d
       0.054007895 -0.00810831 -0.00012632506 0.057993777
000240 b8 15 19 bd 08 60 2b bd d9 c7 43 bc 0f 40 c7 bc
       -0.03737423 -0.04183963 -0.011949503 -0.024322538
000250 9a 62 6f 3c 6f b3 11 bd 2b 9a c7 3d 5c 4a 07 3d
       0.014610911 -0.03557151 0.09746202 0.0330299
000260 7d 68 29 bc 99 e9 7c bd b0 b2 80 3d be f2 90 3d
       -0.010339853 -0.061746214 0.06284082 0.070775494
000270 1f 1c b7 bb 63 95 05 3d a0 6c 6e bc d5 80 9b 3d
       -0.005588069 0.03261317 -0.014552265 0.07592932
000280 b9 18 07 bd 17 b7 4e 3d ad e3 20 3c e4 1f 1e 3c
       -0.03298256 0.050467577 0.009819907 0.009651158
000290 63 e0 b5 3d 8e 4c 15 bd bb d0 a9 bc 10 95 b9 bc
       0.08880689 -0.03644996 -0.020729413 -0.022654086
0002a0 9e 14 c4 3d a5 42 df bb 50 9e a2 bc 2d d0 d8 bc
       0.09574245 -0.0068133646 -0.01985088 -0.026466453
0002b0 12 2a b9 3d 64 d8 60 bc 32 e8 b3 bc 20 30 db bc
       0.090412274 -0.013723467 -0.021961305 -0.026756346
0002c0 ac be 97 3c 1a fb 4f 3d 07 c6 59 bc 25 d3 8b bd
       0.018523537 0.05077658 -0.013291842 -0.06827382
0002d0 a3 5b c9 3c 4b bb cc 3c 0c a2 71 3c 52 74 bb 3c
       0.024579829 0.024991652 0.014748108 0.022882614
0002e0 65 d0 b1 bb 9d b0 4b 3d e6 9c 0f bc 32 6b 87 3d
       -0.005426454 0.04972898 -0.008765435 0.06612243
0002f0 2a 38 2d 3c d6 07 97 bc ea dd 8a 3c 36 26 7e bd
       0.010572473 -0.018436354 0.01695152 -0.06204816
000300 d4 b0 44 3d 3e 23 b9 bc 78 58 0c 3d e6 e9 9b 3a
       0.0480202 -0.022599813 0.034264058 0.0011895269
000310 10 be 80 3b 75 1b 4a 3d c6 01 95 bc 6e 8d 1c 3d
       0.003928907 0.04934259 -0.018189322 0.038220815
000320 36 9d 4c bd da 15 a2 bc 0d e9 af 3d 49 c2 4c bc
       -0.049954616 -0.01978581 0.08589373 -0.012497493
000330 42 08 44 3d c6 5f 8a bd 7f 03 0e bd 0c 5d e8 bb
       0.047859438 -0.067565486 -0.034671303 -0.00709117
000340 5f 74 9d bc 29 2a 9f bb b5 f1 9f bd 75 6d fb bc
       -0.01922053 -0.004857321 -0.07809774 -0.030691842
000350 bc c3 15 3a 35 8a 13 3d 5f 40 a7 3d ef 29 74 bc
       0.00057130656 0.036020476 0.08166575 -0.014902576
000360 b5 20 0f 3d 7c 00 90 3d 9e ae 02 3d 59 ec b0 3d
       0.0349433 0.070313424 0.03190481 0.0863883
000370 eb 56 07 bc 6b da 82 3d b1 f4 9d 3d 78 9f 88 bc
       -0.008260469 0.06389316 0.07712687 -0.016677603
000380 9a e7 45 3c 2e 85 fc bc 80 6b 59 bd 21 33 2a bd
       0.012079144 -0.030825224 -0.053081036 -0.041552667
000390 fb 9e 92 3d 6a 20 ac 3d 01 88 0c 3d fc c7 be 3d
       0.07159229 0.0840462 0.03430939 0.09315488
0003a0 b6 4c d3 bc c2 43 04 3d e7 28 3a bd 25 cd 17 bd
       -0.025793415 0.03229118 -0.045449164 -0.037060875
0003b0 15 fa 58 bc 5c 98 a6 bc f9 a2 7e 3d bc da d8 bb
       -0.013243218 -0.020336322 0.06216714 -0.006617872
0003c0 20 47 14 3d a2 91 89 bb e5 91 01 be 4f ae 65 3d
       0.036200643 -0.004198269 -0.1265331 0.056074437
0003d0 9a ee 5e bd e9 70 36 bc 33 8b f1 3c d5 b8 08 bc
       -0.054426767 -0.011135318 0.02948532 -0.008344849
0003e0 00 81 1c bd 79 34 46 3d 26 1f 44 3d 58 b3 58 bd
       -0.03820896 0.048389886 0.047881268 -0.05290541
0003f0 4a 51 17 3d cf 4c 17 3d 9d a1 b4 bb 8d d6 b1 bc
       0.036942758 0.036938485 -0.00551243 -0.021708751

fc1.bias f4 [120]
000000 a9 e0 7f 3b fd 1d 2a bd 17 79 35 bd 80 0d 94 3d
       0.003904382 -0.041532505 -0.044304933 0.072291374
000010 90 57 03 3d e2 6b ef 3c 62 c6 02 3d 43 ff 35 3d
       0.032065928 0.029226247 0.031927474 0.04443289
000020 8d c8 45 bd 9e 56 e2 bc d4 32 c4 3c 86 99 a0 bb
       -0.048286963 -0.027629193 0.023950018 -0.004901114
000030 99 aa 28 3c c2 f9 77 3b 36 dd 35 3d 56 ae 4e 3d
       0.01029458 0.0037838076 0.044400416 0.05045923
000040 fd 1a 4c 3d 1a 25 0d 3d 12 37 e6 bc 9c 9a 8c bd
       0.049830426 0.03445921 -0.028102431 -0.06865427
000050 ad 95 84 3c 76 9a 9b 3d b8 52 66 bc c2 00 9b 3c
       0.016184652 0.075978205 -0.014057808 0.01892126
000060 59 75 c1 3c 8b 36 23 bd 9a d7 f5 bc 11 13 99 bd
       0.023615526 -0.039846938 -0.030010033 -0.0747434
000070 78 af 89 3d 51 aa e1 3b ff 28 e3 3c b3 61 1a bd
       0.06722921 0.0068867584 0.02772951 -0.03769083
000080 3d 56 0d 3c 9a 29 3b bd 25 5f 53 bd 98 4b 08 3d
       0.008626518 -0.04569397 -0.05160441 0.033275217
000090 87 0c 8d bd 0f 36 84 3d 80 67 06 bd c7 40 7e bc
       -0.06887155 0.06455623 -0.03281355 -0.015518374
0000a0 5f 12 82 bc f2 54 ba 3c 3f f3 22 3d 2b 40 b2 3d
       -0.0158779 0.022745583 0.03978276 0.08703645
0000b0 c0 77 05 3d 25 27 39 bd 58 5e bc 3b e9 6a 71 3d
       0.032584906 -0.045203347 0.0057485513 0.058939848
0000c0 16 50 4f 3c d8 f0 a4 3d cb 98 5a 3d 3c 46 2b 3d
       0.012653371 0.0805375 0.05336837 0.041815028
0000d0 43 ff 4c bd f4 0a be bc 6d 22 9c 3c b0 f0 c9 3c
       -0.050048124 -0.023198582 0.019059384 0.024650902
0000e0 ad 9c cb 3c 85 4c 4f 3d 92 78 68 bd aa 20 ea bc
       0.024854982 0.050610084 -0.05675561 -0.028580029
0000f0 99 a4 a3 bd 5c 86 25 3d e3 c2 41 3d 1c 02 b0 3d
       -0.07990379 0.04041134 0.047305 0.08594152
000100 35 b1 8a 3c 35 d1 be bb d6 64 1e 3d 52 b5 06 bc
       0.016930202 -0.0058232793 0.038670383 -0.008221941
000110 72 30 c2 bb 3d 1a ac bc 87 79 12 3d 20 55 d6 ba
       -0.0059261853 -0.021008605 0.03576043 -0.0016352274
000120 5a 19 56 bd 35 cc 80 bd cf 12 ae bc 42 7d 84 bd
       -0.05227027 -0.062889494 -0.021249203 -0.064692035
000130 67 4c 34 3d ff 03 02 3d a5 6c f0 3c 1b 23 54 3d
       0.044018175 0.031742092 0.02934868 0.05179129
000140 4c 60 3c bd ba a9 1e 3c dd ed 85 3c de 79 62 3d
       -0.045990273 0.009684021 0.016348774 0.055292003
000150 c0 86 a5 3c da 31 a7 3c 80 3a 17 3d af fe a7 3d
       0.020205855 0.020409513 0.036921024 0.08202874
000160 be 7e 56 3d fc 9a 88 3c dc ad 94 3d 78 bf 86 bd
       0.052366965 0.016675465 0.072597235 -0.065794885
000170 f2 c3 6e 3c 07 2b 76 3d 92 d9 d5 3c b4 76 0d bc
       0.014573084 0.060099628 0.026104722 -0.008634258
000180 0a 47 c8 3d 91 05 46 3d 8f ea 62 3c 58 2b 57 3c
       0.097791746 0.048345152 0.013849868 0.013132893
000190 f0 99 5d 3d 91 dd 43 3b 1d 0b ab bc ac 45 69 bd
       0.054101884 0.0029886703 -0.020879323 -0.05695121
0001a0 07 6a 37 3c 28 e1 ed bc 28 f6 33 3d b1 bf 8e 3c
       0.0111947125 -0.029038027 0.043935925 0.01742539
0001b0 5f 94 9d 3d df b5 8f 3c 18 4a 51 3d 94 02 89 3b
       0.07694315 0.017542778 0.051096052 0.0041812155
0001c0 42 c5 02 bd 39 97 68 3d 32 26 24 bd c2 bc 34 bd
       -0.0319264 0.056784842 -0.04007549 -0.044125326
0001d0 dc 80 9b bc fc c3 35 bd 56 d4 a5 3d 52 df 9a bc
       -0.018982343 -0.04437636 0.080971405 -0.018905316

fc2.weight f4 [84, 120]
000000 13 31 86 bd cc 6b 48 3d c2 39 8b bc c5 88 d8 3d
       -0.06552329 0.048930928 -0.016995315 0.10572962
000010 26 fd 32 3d 73 f4 a6 bd 7e b7 32 3d ce b6 e3 bc
       0.043698452 -0.08152094 0.043632023 -0.027797129
000020 e8 ef 9c 3d 2a 41 65 bd 19 36 95 3d 06 97 f2 b9
       0.07662946 -0.05597035 0.07285709 -0.00046270358
000030 18 19 b6 bd a8 cb 8e 3c 90 fc 8b 3d 29 a7 42 bd
       -0.08891505 0.017431095 0.06835282 -0.047522698
000040 32 cb 7f bd 7a 3c cf 3d c6 1f 8a bd bf 2b a9 bc
       -0.06244964 0.10118957 -0.067443416 -0.020650743
000050 4b 9a 90 3d c4 fd 85 3d 6b 5d bf 3d 03 d0 92 bd
       0.07060679 0.065425426 0.0934399 -0.07168581
000060 34 bb 11 3d 47 5c 00 bc 1a ce 29 3c a4 85 1e bd
       0.03557892 -0.007834501 0.01036408 -0.03870167
000070 5a 9a ba bd ff f2 83 bd 74 fe e4 bb 18 9e 41 3d
       -0.091114715 -0.06442832 -0.006988341 0.04726991
000080 8a 78 f9 bd 67 d5 60 bd 3a ae 93 3d 0c 89 f6 3d
       -0.12181194 -0.054891016 0.072109655 0.12037858
000090 42 a8 5f 3c c1 08 b4 bd 82 de 42 3d 12 42 d3 3d
       0.013650956 -0.08790732 0.04757548 0.10315336
0000a0 8f 53 9f bc 66 82 4e bd f2 89 ae 3d 6f 50 d0 3d
       -0.019449024 -0.050417326 0.08522405 0.101715915
0000b0 74 4c c6 bc 3e 55 28 3d 26 a0 b7 3d 3b e2 38 3b
       -0.024206378 0.04109692 0.08966093 0.0028211016
0000c0 31 be cf bc 3c ab 3f 3d 22 ae 7c 3c 10 72 9b 3d
       -0.025359245 0.04679416 0.015422376 0.07590115
0000d0 24 71 be 3d 8a 88 1f 3c 38 89 9d bd 53 9b fb 3d
       0.092989236 0.009737143 -0.07692188 0.12285485
0000e0 98 29 ab bd f1 90 83 bd 6e fb 43 bd 74 e3 99 bd
       -0.08357543 -0.0642413 -0.047847204 -0.07514086
0000f0 23 fa 0a be d6 dc 6b 3c 82 42 c8 bc f0 00 26 3e
       -0.13571982 0.014395913 -0.024445776 0.16211295
000100 ab 6e 1e bd c5 4d 62 3d 1f b9 ba bd 3b 8d 37 3d
       -0.03867976 0.055249948 -0.0911734 0.044812422
000110 db 21 15 3a 9b 0d 19 3e f8 0e e6 3c 2a 32 52 3d
       0.0005688944 0.14946596 0.02808331 0.05131737
000120 e0 2e d1 bc 09 ec 05 3d 5e ac 44 bd 30 fc 9f bc
       -0.025535047 0.032695804 -0.048015945 -0.019529432
000130 19 34 9a 3d 87 e9 2b bc d1 43 51 bd 40 2e 93 3d
       0.07529468 -0.010492689 -0.051090065 0.07186556
000140 63 39 a1 3d b1 e2 52 bd 27 1a 43 3d 46 80 17 3d
       0.07872274 -0.05148572 0.047632363 0.036987565
000150 a0 99 23 3e 0f dd 9b 3b 7f c9 c0 3d 7f 9e ae bc
       0.15976572 0.004756577 0.09413432 -0.021315811
000160 df f7 8e bc 1f 2e 1a 3d 92 41 49 bb bb 84 cf 3c
       -0.017452179 0.03764164 -0.003070925 0.025331846
000170 9b 76 59 bd 69 35 37 bd f8 81 e2 3c a1 07 9e bc
       -0.053091627 -0.04472867 0.027649865 -0.019290747
000180 96 c4 86 3d b4 46 75 bc b8 a4 e9 bc f5 43 00 3e
       0.065804645 -0.01497047 -0.028520927 0.12525924
000190 66 58 b0 bd 1b 23 c3 3d 67 1c 2d bc 36 0f a4 3d
       -0.08610611 0.0952818 -0.010565854 0.08010714
0001a0 bc 0b 19 bd 8d 1d 7a bd c9 66 61 bd 52 d5 ac 3b
       -0.037364706 -0.061063338 -0.055029664 0.005274453
0001b0 fe e9 d2 3d 2c a5 9e 3d 8b 50 22 bb d0 51 55 bd
       0.10298537 0.07746348 -0.0024767246 -0.052079976
0001c0 d0 ae bd bd 83 1a 63 3d f9 e2 24 bd 63 2f 8b 3d
       -0.092618585 0.055445205 -0.04025552 0.06796148
0001d0 09 7e dd 3d 79 09 4d bd 05 db 73 bc e4 dd 54 3c
       0.10815055 -0.050057862 -0.014883761 0.012992356
0001e0 b5 05 d5 3d 92 e9 ae 3d 5e 2d 61 bc 36 32 f0 3d
       0.10401479 0.08540644 -0.013743727 0.11728327
0001f0 e1 51 95 bd b5 e7 82 3d a5 2f f1 3d bc a5 a5 3d
       -0.07291008 0.06391851 0.117766656 0.08088252
000200 38 e6 cc bd 46 29 23 3d 7d 9d a2 bc 1b 9d 52 bc
       -0.10004848 0.039834283 -0.019850487 -0.01285484
000210 76 94 8b 3d a4 46 3a bd 50 1b 55 bd 9f 85 ff 3c
       0.06815426 -0.045477524 -0.052028 0.031191645
000220 e3 b7 6f 3d c2 c7 8c bd 42 38 27 3d 38 45 50 3d
       0.058524977 -0.06874038 0.040825136 0.050847262
000230 cb 48 89 3d 7b 48 88 3d 13 09 db 3d 71 46 fd 3c
       0.06703337 0.066544496 0.1069509 0.030917378
000240 5b 78 7c bd a3 3c 90 3d a6 f8 61 bb 23 11 a9 3d
       -0.061638217 0.070428155 -0.0034480481 0.08255222
000250 83 55 ac 3d 79 f9 76 3d f5 f8 96 bd 92 70 65 bd
       0.084147476 0.06029651 -0.073717035 -0.05601556
000260 b0 7e 6f 3d 00 2d c5 b9 fa 66 8b 3d 8d 1e aa bd
       0.058470428 -0.00037608296 0.068067506 -0.08306608
000270 d9 c7 0d bd b4 cb 57 3c 68 5e ff 3d 4c 02 24 3c
       -0.034614418 0.013171125 0.124691784 0.010010313
000280 e5 f1 f1 3d ce 7e b4 bd 01 6b 2c 3e c6 a3 e9 bd
       0.11813716 -0.088132486 0.16837694 -0.114081904
000290 fb 4d ef bd 27 53 a5 3d 72 e1 04 bc c1 2c c1 bb
       -0.116847955 0.08072501 -0.008110391 -0.0058952277
0002a0 0f a8 0a 3d 7e 68 8e bd 12 f9 8f bd a7 df 82 bd
       0.03385168 -0.06953524 -0.07029928 -0.063903145
0002b0 95 59 90 ba 3b 3e 61 bb 51 8c 89 3d 06 b5 3c bb
       -0.0011013026 -0.0034369368 0.06716216 -0.0028794422
0002c0 69 ce 91 3d 44 7b 0e be 9a fa d4 bc 9b 6d 13 bd
       0.07119448 -0.1391421 -0.025998402 -0.0359932
0002d0 03 8e ee 3c 09 84 aa 3d 83 25 bb bd a3 db 54 be
       0.02912045 0.08325965 -0.09138014 -0.2078691
0002e0 37 ed d0 3b da fc ca 3d e9 42 a5 3d fd d0 ed bd
       0.0063759345 0.09911509 0.08069403 -0.11612127
0002f0 5f ab 4c bd 87 38 7a bd 31 2a 05 3d 7a 6a aa bb
       -0.04996812 -0.061089065 0.03251094 -0.0052006813
000300 77 0d 89 3d 9c 86 f2 3d 83 8f 75 3b 46 52 95 3d
       0.06692021 0.11842081 0.0037469573 0.07291083
000310 79 9e 97 3d 3e 64 2e bc 8b a9 62 bc ab 05 3f 3d
       0.07403273 -0.010644017 -0.0138343675 0.046636265
000320 97 0d ce bd 6a 6c f8 3c 02 2f 33 3d fd 5c f6 3d
       -0.10061186 0.030325133 0.043746002 0.12029455
000330 f8 e8 d1 bd 83 09 0d bd 96 ad 94 3c d8 da 49 3d
       -0.102495134 -0.0344329 0.018149178 0.04928097
000340 cd df 81 bc 81 ef 98 bd da 92 09 bd 9d 52 d3 3d
       -0.015853787 -0.07467557 -0.033587314 0.103184916
000350 f4 7d 30 3d c5 a0 94 bc ce a0 e2 3c 73 d0 52 3a
       0.04308887 -0.018143067 0.027664568 0.00080419256
000360 32 4c 1c bd a4 18 b2 bd 09 4f bb 3d 07 1c 33 3d
       -0.038158603 -0.08696106 0.09145934 0.0437279
000370 ad 10 bf bc 53 fb 23 bd f9 47 c7 bd 06 a0 a8 bd
       -0.023323381 -0.040034603 -0.097305246 -0.08233647
000380 29 86 5b 3c bb ba 52 3d 3b 5b 14 3d c3 06 d6 3d
       0.0133986855 0.05144761 0.036219817 0.104505084
000390 07 11 56 39 63 9e e2 3c 1a 1b a7 bc c4 7b a8 3d
       0.00020414974 0.027663415 -0.020398665 0.082267314
0003a0 40 11 e0 bc 7e 17 b7 3d 71 7e b4 3d 9e 93 78 bd
       -0.027351975 0.08940028 0.08813179 -0.060687654
0003b0 3a 3a 79 bd a3 9f a6 3d ca 2f 52 bd b8 32 74 3d
       -0.060846545 0.08135917 -0.051315106 0.05961868
0003c0 0f 5f a2 3d be 8c ef bd 61 43 16 3d 72 a1 2d 3d
       0.07928287 -0.11696766 0.03668535 0.042390294
0003d0 1e 28 2a 3d 98 14 fc bc 59 b8 eb bd a1 25 0a 3d
       0.041542165 -0.030771539 -0.11509771 0.033727292
0003e0 59 fc 05 3d 38 53 0c be 1d 48 8c bc 39 cd e0 bd
       0.03271136 -0.1370362 -0.01712423 -0.10976643
0003f0 61 6c 4f bd 84 c1 82 3b 2a 3c 6c 3d cd 7a dc bc
       -0.050640468 0.003990354 0.057674564 -0.026914025

fc2.bias f4 [84]
000000 0f bc c7 bc 6f e8 47 bc 2f ba 75 3c fe 09 a0 3d
       -0.024381666 -0.012201413 0.014998003 0.07814406
000010 ed f3 d2 3d f6 92 92 bd 01 66 8b bd fb f7 44 3d
       0.103004314 -0.07156937 -0.06806565 0.048088055
000020 75 54 88 bc de 37 2c 3d 12 a3 98 3d e5 be 98 3c
       -0.016641835 0.042045467 0.07452978 0.018645713
000030 d3 15 99 bd 40 eb 90 bd 0d 35 c1 bd 89 6c 07 3d
       -0.07474866 -0.070761204 -0.09433947 0.03306249
000040 10 c8 2b 3d 8b 6c ad bd fa fc 51 3d b5 dd 26 3c
       0.04193884 -0.084679686 0.051266648 0.010184695
000050 47 1d e7 bc e2 7d 6c bd c6 6c 97 bd 02 3e 50 3d
       -0.028212203 -0.05773724 -0.07393794 0.050840385
000060 11 61 8a 3d a7 e2 81 3d d9 c8 54 3d 99 70 97 bd
       0.06756795 0.06342059 0.051949356 -0.07394523
000070 79 b7 cb bb 18 68 1b 3c db b2 78 bd 9c 85 81 bd
       -0.00621694 0.009485267 -0.060717445 -0.06324312
000080 e4 c0 e9 bb 64 de 53 bd d6 f6 68 bd c8 ee 30 3d
       -0.00713359 -0.05172576 -0.056876026 0.04319647
000090 05 e6 92 3c c1 9e a3 bd 4e 5e 9e bd 66 72 65 bb
       0.017931947 -0.07989264 -0.07732831 -0.0035010814
0000a0 42 74 ea ba d3 22 17 3c 32 34 ec 3d 4b 83 76 3d
       -0.0017887431 0.009224611 0.11533393 0.060183804
0000b0 4b 03 42 3b 0e f5 98 bd 93 52 de 3c 80 4c a5 bd
       0.0029604014 -0.074686155 0.027138984 -0.08071232
0000c0 25 8e 4a bd bc 14 41 3d 60 b2 60 3d 37 ee 7c bd
       -0.049451966 0.047138914 0.05485761 -0.061750617
0000d0 d2 2b a0 3c 66 d0 b9 3d d3 7b a7 3d 35 fd ef 3c
       0.019552145 0.09072952 0.081779145 0.029295543
0000e0 b6 a0 8d bd af e4 4e bd 1b d8 61 3d af da 33 bd
       -0.06915419 -0.05051106 0.055137735 -0.043909725
0000f0 47 5d 02 3d 7b 13 59 3d c7 0f ca bd 87 c3 85 bd
       0.031827237 0.052997094 -0.098662905 -0.065314345
000100 5b 52 ea bd 9f 19 d4 3c 58 f2 7b bc 43 80 24 3d
       -0.11441489 0.025891123 -0.0153776035 0.040161382
000110 b0 58 82 3d 00 e6 6d 3c 86 4b 21 bd bc 91 26 3d
       0.06364572 0.014520168 -0.039378665 0.040666327
000120 59 24 87 bb f5 17 c3 3d 97 a8 82 bd 66 5f 45 bc
       -0.004124206 0.09526054 -0.06379812 -0.012046671
000130 c7 57 b2 b9 ca f6 8e bd b9 35 b0 bd f3 f5 92 3d
       -0.00034016205 -0.06980665 -0.08603997 0.07175817
000140 0f 51 c6 3d 1e 91 08 3d 02 b9 78 bb c3 6a 61 3d
       0.096834294 0.03334152 -0.003795207 0.055033457

fc3.weight f4 [10, 84]
000000 a7 2b fb bb 83 15 65 bd 23 05 e8 3d b4 78 c9 3d
       -0.007665116 -0.05592872 0.11329105 0.098374754
000010 13 23 39 3c c8 ab bf 3d bf 07 3e 3d 7a 7c 85 b9
       0.011299866 0.093589365 0.046394106 -0.0002546048
000020 dd 3e 05 be 0d 3d 31 bc 27 88 85 3d c0 4e 96 3c
       -0.13012262 -0.010817778 0.065201096 0.018348098
000030 d8 54 22 3e eb b4 d0 bd 05 3f 86 bd 32 1e 5c 3d
       0.15852678 -0.10190757 -0.06554989 0.053739734
000040 25 4d 82 3d 6c 2d d6 3c b6 9c e5 3c a5 54 27 3d
       0.063623704 0.026144706 0.028028827 0.040852208
000050 e5 2b 71 3d 10 7a a7 bd d3 4b d4 3d 7e 04 0b be
       0.05887975 -0.081775784 0.10366025 -0.13575932
000060 e0 32 92 bd 82 bb e6 3c aa ce f0 3c 20 33 bb bd
       -0.0713861 0.028165583 0.02939542 -0.09140611
000070 78 4c 01 be 7e d8 f0 3d 4a 7d af bd f8 83 0e 3c
       -0.12626827 0.117600426 -0.08568819 0.008698456
000080 dc 17 9f 3d 60 2a 63 3d a0 e6 97 3d 3c 82 bb 3d
       0.07768223 0.055460334 0.07417035 0.091556996
000090 e0 b9 c9 3d be d8 69 bd 0d bc 06 3e 5e 64 1f be
       0.09849906 -0.057091467 0.13157673 -0.15565631
0000a0 16 5a 1d 3c ba 22 1c be 98 bc 2b bc 53 67 c3 bd
       0.009603998 -0.15247622 -0.010481976 -0.09541192
0000b0 f8 dd 39 3d 08 53 17 3c cb 8a bf 3d bc ce b0 bd
       0.0453777 0.009236105 0.093526445 -0.086331815
0000c0 36 03 b2 bc cf 4e d6 bd 5b 82 97 3c 36 ec 0a 3d
       -0.021730047 -0.1046425 0.018494776 0.033916675
0000d0 fa 05 12 3e be 62 d9 bd 4e 68 99 b9 2a a1 cb 3c
       0.14260092 -0.10614537 -0.00029260147 0.024857122
0000e0 24 ee 06 bd 56 19 72 3d 88 12 21 3d d5 83 3d bd
       -0.032941952 0.059106193 0.039324313 -0.046268303
0000f0 7e f2 ea 3c 86 b8 da bd cc 61 37 3d 71 6c 84 bd
       0.028680082 -0.10679726 0.044771 -0.06465996
000100 30 cc 28 3d fe aa 84 bd 43 ca cf 3d 5d 1e e3 3d
       0.041210353 -0.06477927 0.10146 0.11089776
000110 99 61 46 3d 6f 84 73 bd 10 7d 41 3d 2c 0a c2 bd
       0.04843292 -0.05945247 0.04723841 -0.094745964
000120 e6 dc e9 bd 3c 14 89 3d 5e 98 a1 bd f4 b2 a4 3d
       -0.11419086 0.066933125 -0.0789039 0.08041945
000130 49 c5 8a 3d 6d f9 12 bd c2 dc e2 3b e5 cf 43 bc
       0.067759104 -0.035882402 0.006923289 -0.011951421
000140 b5 3b a5 bd fa 1e 08 be d9 97 20 bc 25 83 00 3d
       -0.08068029 -0.13293067 -0.009801828 0.03137507
000150 94 4c c5 bd 85 ee bd 3d 6f ae 06 be a0 fd a7 3d
       -0.09633747 0.092740096 -0.13152479 0.08202672
000160 c4 9a c8 bd 40 98 c4 3d 3b 5b 80 3d 72 76 00 3e
       -0.09795144 0.09599352 0.06267401 0.12545183
000170 c9 c2 05 3e 6c ce 99 bd b9 6f d2 3d 70 5f 13 3d
       0.13062586 -0.07510075 0.10275216 0.03597969
000180 36 ef 15 3e 2a 6c 72 3d 3a 31 be 3d 67 7c 8a bd
       0.14642033 0.059185185 0.09286733 -0.06762009
000190 93 fb 59 bd 1e b7 3e bd 80 f0 a2 bd bb 32 d8 bd
       -0.053218435 -0.046561353 -0.07956028 -0.10556551
0001a0 f1 8b d4 bd dc 30 3d bd 68 58 71 3c d8 7a 49 3c
       -0.10378254 -0.046189174 0.01473055 0.012297355
0001b0 ce c0 04 bd 65 73 20 be 72 5c 3e 3d 90 5f 99 3b
       -0.032410435 -0.1566902 0.04647488 0.0046805814
0001c0 1c 08 92 bc f4 40 96 3d ef 3f 86 bc 13 68 be 3d
       -0.017826132 0.073366076 -0.016387908 0.09297194
0001d0 01 99 d4 bd 57 9f 47 3d 26 6b a9 3d 35 82 9f bb
       -0.10380746 0.048735943 0.0827239 -0.004867817
0001e0 21 e6 98 3d 32 73 1a 3e 27 37 db 3d 54 af 11 3d
       0.074657686 0.15083006 0.10703879 0.035567597
0001f0 a9 08 6a 3d d6 c3 94 bd 41 44 01 3e 36 ce f4 bd
       0.057137165 -0.07263915 0.12623693 -0.11953394
000200 19 22 86 3d 5e 26 84 bd d8 ab 15 be da 03 ff bd
       0.06549472 -0.064526305 -0.14616334 -0.124519065
000210 e9 b4 81 3d e4 3b b0 bd 98 9b 4f 3d 31 9b 96 3d
       0.06333334 -0.08605173 0.050685495 0.07353819
000220 78 b4 8e bc 67 f0 9b 3d 12 3b 19 be 36 e0 4f bd
       -0.017420039 0.076142125 -0.1496394 -0.050750934
000230 51 b4 61 bd 74 a5 9a 3d e0 b4 c3 3d 69 eb 6d 3c
       -0.055103604 0.07551089 0.095559835 0.014521458
000240 f6 22 0f be 34 de 14 3e 16 01 f8 bd 29 32 1c be
       -0.1397818 0.14537889 -0.12109582 -0.1525351
000250 29 fa 97 bc 1e 8b 9c bd 99 03 8d 3d 40 7e 8f bd
       -0.018551903 -0.07643722 0.06885452 -0.07006502
000260 a8 11 01 3e e8 45 3f 3c 20 64 b6 bd d2 11 67 3c
       0.12604392 0.011674382 -0.08905816 0.01410337
000270 2c 6a d8 bd 4c 76 9c 3d 66 c9 b3 3d 98 c6 19 bd
       -0.10567126 0.07639751 0.08778648 -0.03754291
000280 de a9 98 bd ec 85 44 be 48 b0 37 bd 93 52 2b bd
       -0.074542746 -0.19191712 -0.04484585 -0.041826796
000290 58 88 4a bd 95 b8 9f bd e2 54 d2 bd 3a ee a1 3c
       -0.049446434 -0.07798878 -0.10270096 0.019766916
0002a0 71 ec 0f 3c 33 33 b7 39 ae ca ca 3d 43 be fe 3c
       0.008784399 0.00034942626 0.09901939 0.031096583
0002b0 9e b8 1b bd c2 c2 da bd 3f 28 68 3d c3 af 11 3e
       -0.03801786 -0.10681678 0.056679007 0.14227204
0002c0 69 c3 26 bd 67 70 dd 3d e8 78 b7 3b ed e2 62 bd
       -0.0407137 0.10812455 0.00559913 -0.055392195
0002d0 9b c3 b1 bd 27 18 82 3d f7 8f c5 bd 93 8b d9 3d
       -0.08679887 0.06352263 -0.096466 0.10622325
0002e0 48 cd 1b bd 34 6a 91 bc 93 70 cf 3c 11 17 5f 3d
       -0.03803757 -0.017750837 0.025322234 0.054465357
0002f0 28 2a 1c bc 8e e3 7e bd c2 33 14 bd 4e d0 83 bd
       -0.009531535 -0.06222873 -0.036182173 -0.06436215
000300 a2 d1 25 3d 6c 16 a4 bd 1d 55 fe bd 0e f7 14 3c
       0.040483125 -0.08012089 -0.12418578 0.009092106
000310 3f de 6a bc 8f 91 37 bd fb 4f 28 be 47 d7 c4 bd
       -0.014335214 -0.04481655 -0.1643676 -0.096113734
000320 1c 67 27 bd 47 49 ab bd f2 58 e9 bd 96 3c 1f be
       -0.040869817 -0.08363586 -0.11393918 -0.15550455
000330 dc f0 61 bd 88 08 03 3c 53 97 5b be b5 37 d1 3d
       -0.055161342 0.0079976395 -0.21444444 0.102157034
000340 70 e5 8f 3d 93 ab 73 bc 57 28 48 3c e4 33 f6 3a
       0.070261836 -0.014872449 0.012216649 0.0018783775
000350 e2 7f d8 3d 58 92 22 bc 1a 45 93 3c 21 f3 28 be
       0.10571267 -0.009922586 0.017977286 -0.16498996
000360 55 70 5c 3d 06 8a 89 3d 61 76 9a 3c 96 66 17 3d
       0.053818066 0.06715779 0.018855276 0.036963068
000370 23 29 b3 3d a2 54 19 be 4c fc a9 3b 33 82 8c bd
       0.087480806 -0.14973691 0.005187547 -0.06860771
000380 c7 5a 54 bd ca 26 84 bd d9 c7 d5 3d 4a a5 de 3c
       -0.051844385 -0.06452711 0.104385085 0.027178425
000390 3c 2f d2 3d 7d 4e d3 3c 5e a3 cc 3d 2d 4d eb bd
       0.102629155 0.025794262 0.09992097 -0.114893295
0003a0 fc 87 43 be 7c ae c2 bc 22 a7 25 3d 2d a6 a4 bc
       -0.19094843 -0.023764841 0.040442593 -0.02009877
0003b0 4d e5 e8 bd 08 6d d6 bc e8 4d 18 bb 81 b8 da 3d
       -0.11371861 -0.026175037 -0.0023239795 0.106797226
0003c0 2c 3e fd 3c 4e 1c 78 3c f9 24 01 3d 52 b8 bc bd
       0.030913435 0.015143467 0.0315294 -0.09214844
0003d0 7e 29 8a bc 05 8f c2 3d 3a 07 da bd de cf 18 bc
       -0.016865488 0.09499935 -0.106459096 -0.009326903
0003e0 d6 ae 6d bd 8a 97 6a bd 35 2a e9 3d 2f 1d 41 bd
       -0.058028065 -0.057273425 0.113850035 -0.047146972
0003f0 95 a4 b0 3d c6 48 99 3d df 17 f2 3d aa bb 49 3d
       0.086251415 0.074845836 0.11820959 0.049251236

fc3.bias f4 [10]
000000 b1 d7 ca 3d 33 f9 e6 3d 43 c3 e7 bb 68 dd a8 bc
       0.09904421 0.11278 -0.0070728376 -0.020613387
000010 09 a8 a3 bd 49 61 66 bd 05 73 aa bd 1e b3 86 bd
       -0.079910345 -0.056245122 -0.083227195 -0.06577133
000020 16 2b df 3d 55 0d c2 bd
       0.1089689 -0.09475199
